<?xml version="1.0"?>
<net name="main_graph" version="11">
	<layers>
		<layer id="1" name="input1" type="Parameter" version="opset1">
			<data shape="1,3,576,320" element_type="f32" />
			<output>
				<port id="0" precision="FP32" names="input1">
					<dim>1</dim>
					<dim>3</dim>
					<dim>576</dim>
					<dim>320</dim>
				</port>
			</output>
		</layer>
		<layer id="0" name="input2" type="Parameter" version="opset1">
			<data shape="1,3,576,320" element_type="f32" />
			<output>
				<port id="0" precision="FP32" names="input2">
					<dim>1</dim>
					<dim>3</dim>
					<dim>576</dim>
					<dim>320</dim>
				</port>
			</output>
		</layer>
		<layer id="2" name="Constant_43451_compressed" type="Const" version="opset1">
			<data element_type="f16" shape="1, 1, 1, 1" offset="0" size="2" />
			<output>
				<port id="0" precision="FP16">
					<dim>1</dim>
					<dim>1</dim>
					<dim>1</dim>
					<dim>1</dim>
				</port>
			</output>
		</layer>
		<layer id="3" name="Constant_43451" type="Convert" version="opset1">
			<data destination_type="f32" />
			<rt_info>
				<attribute name="decompression" version="0" />
			</rt_info>
			<input>
				<port id="0" precision="FP16">
					<dim>1</dim>
					<dim>1</dim>
					<dim>1</dim>
					<dim>1</dim>
				</port>
			</input>
			<output>
				<port id="1" precision="FP32">
					<dim>1</dim>
					<dim>1</dim>
					<dim>1</dim>
					<dim>1</dim>
				</port>
			</output>
		</layer>
		<layer id="4" name="Constant_43450_compressed" type="Const" version="opset1">
			<data element_type="f16" shape="1, 1, 1, 1" offset="0" size="2" />
			<output>
				<port id="0" precision="FP16">
					<dim>1</dim>
					<dim>1</dim>
					<dim>1</dim>
					<dim>1</dim>
				</port>
			</output>
		</layer>
		<layer id="5" name="Constant_43450" type="Convert" version="opset1">
			<data destination_type="f32" />
			<rt_info>
				<attribute name="decompression" version="0" />
			</rt_info>
			<input>
				<port id="0" precision="FP16">
					<dim>1</dim>
					<dim>1</dim>
					<dim>1</dim>
					<dim>1</dim>
				</port>
			</input>
			<output>
				<port id="1" precision="FP32">
					<dim>1</dim>
					<dim>1</dim>
					<dim>1</dim>
					<dim>1</dim>
				</port>
			</output>
		</layer>
		<layer id="6" name="Constant_41242_compressed" type="Const" version="opset1">
			<data element_type="f16" shape="1, 3, 1, 1" offset="2" size="6" />
			<output>
				<port id="0" precision="FP16">
					<dim>1</dim>
					<dim>3</dim>
					<dim>1</dim>
					<dim>1</dim>
				</port>
			</output>
		</layer>
		<layer id="7" name="Constant_41242" type="Convert" version="opset1">
			<data destination_type="f32" />
			<rt_info>
				<attribute name="decompression" version="0" />
			</rt_info>
			<input>
				<port id="0" precision="FP16">
					<dim>1</dim>
					<dim>3</dim>
					<dim>1</dim>
					<dim>1</dim>
				</port>
			</input>
			<output>
				<port id="1" precision="FP32">
					<dim>1</dim>
					<dim>3</dim>
					<dim>1</dim>
					<dim>1</dim>
				</port>
			</output>
		</layer>
		<layer id="8" name="Multiply_41237" type="Multiply" version="opset1">
			<data auto_broadcast="numpy" />
			<input>
				<port id="0" precision="FP32">
					<dim>1</dim>
					<dim>3</dim>
					<dim>576</dim>
					<dim>320</dim>
				</port>
				<port id="1" precision="FP32">
					<dim>1</dim>
					<dim>3</dim>
					<dim>1</dim>
					<dim>1</dim>
				</port>
			</input>
			<output>
				<port id="2" precision="FP32">
					<dim>1</dim>
					<dim>3</dim>
					<dim>576</dim>
					<dim>320</dim>
				</port>
			</output>
		</layer>
		<layer id="9" name="Constant_41239_compressed" type="Const" version="opset1">
			<data element_type="f16" shape="1, 3, 1, 1" offset="8" size="6" />
			<output>
				<port id="0" precision="FP16">
					<dim>1</dim>
					<dim>3</dim>
					<dim>1</dim>
					<dim>1</dim>
				</port>
			</output>
		</layer>
		<layer id="10" name="Constant_41239" type="Convert" version="opset1">
			<data destination_type="f32" />
			<rt_info>
				<attribute name="decompression" version="0" />
			</rt_info>
			<input>
				<port id="0" precision="FP16">
					<dim>1</dim>
					<dim>3</dim>
					<dim>1</dim>
					<dim>1</dim>
				</port>
			</input>
			<output>
				<port id="1" precision="FP32">
					<dim>1</dim>
					<dim>3</dim>
					<dim>1</dim>
					<dim>1</dim>
				</port>
			</output>
		</layer>
		<layer id="11" name="/Div_1" type="Add" version="opset1">
			<data auto_broadcast="numpy" />
			<input>
				<port id="0" precision="FP32">
					<dim>1</dim>
					<dim>3</dim>
					<dim>576</dim>
					<dim>320</dim>
				</port>
				<port id="1" precision="FP32">
					<dim>1</dim>
					<dim>3</dim>
					<dim>1</dim>
					<dim>1</dim>
				</port>
			</input>
			<output>
				<port id="2" precision="FP32" names="/Div_1_output_0">
					<dim>1</dim>
					<dim>3</dim>
					<dim>576</dim>
					<dim>320</dim>
				</port>
			</output>
		</layer>
		<layer id="12" name="Constant_41249_compressed" type="Const" version="opset1">
			<data element_type="f16" shape="1, 3, 1, 1" offset="2" size="6" />
			<output>
				<port id="0" precision="FP16">
					<dim>1</dim>
					<dim>3</dim>
					<dim>1</dim>
					<dim>1</dim>
				</port>
			</output>
		</layer>
		<layer id="13" name="Constant_41249" type="Convert" version="opset1">
			<data destination_type="f32" />
			<rt_info>
				<attribute name="decompression" version="0" />
			</rt_info>
			<input>
				<port id="0" precision="FP16">
					<dim>1</dim>
					<dim>3</dim>
					<dim>1</dim>
					<dim>1</dim>
				</port>
			</input>
			<output>
				<port id="1" precision="FP32">
					<dim>1</dim>
					<dim>3</dim>
					<dim>1</dim>
					<dim>1</dim>
				</port>
			</output>
		</layer>
		<layer id="14" name="Multiply_41244" type="Multiply" version="opset1">
			<data auto_broadcast="numpy" />
			<input>
				<port id="0" precision="FP32">
					<dim>1</dim>
					<dim>3</dim>
					<dim>576</dim>
					<dim>320</dim>
				</port>
				<port id="1" precision="FP32">
					<dim>1</dim>
					<dim>3</dim>
					<dim>1</dim>
					<dim>1</dim>
				</port>
			</input>
			<output>
				<port id="2" precision="FP32">
					<dim>1</dim>
					<dim>3</dim>
					<dim>576</dim>
					<dim>320</dim>
				</port>
			</output>
		</layer>
		<layer id="15" name="Constant_41246_compressed" type="Const" version="opset1">
			<data element_type="f16" shape="1, 3, 1, 1" offset="8" size="6" />
			<output>
				<port id="0" precision="FP16">
					<dim>1</dim>
					<dim>3</dim>
					<dim>1</dim>
					<dim>1</dim>
				</port>
			</output>
		</layer>
		<layer id="16" name="Constant_41246" type="Convert" version="opset1">
			<data destination_type="f32" />
			<rt_info>
				<attribute name="decompression" version="0" />
			</rt_info>
			<input>
				<port id="0" precision="FP16">
					<dim>1</dim>
					<dim>3</dim>
					<dim>1</dim>
					<dim>1</dim>
				</port>
			</input>
			<output>
				<port id="1" precision="FP32">
					<dim>1</dim>
					<dim>3</dim>
					<dim>1</dim>
					<dim>1</dim>
				</port>
			</output>
		</layer>
		<layer id="17" name="/Div_3" type="Add" version="opset1">
			<data auto_broadcast="numpy" />
			<input>
				<port id="0" precision="FP32">
					<dim>1</dim>
					<dim>3</dim>
					<dim>576</dim>
					<dim>320</dim>
				</port>
				<port id="1" precision="FP32">
					<dim>1</dim>
					<dim>3</dim>
					<dim>1</dim>
					<dim>1</dim>
				</port>
			</input>
			<output>
				<port id="2" precision="FP32" names="/Div_3_output_0">
					<dim>1</dim>
					<dim>3</dim>
					<dim>576</dim>
					<dim>320</dim>
				</port>
			</output>
		</layer>
		<layer id="18" name="/Concat" type="Concat" version="opset1">
			<data axis="0" />
			<input>
				<port id="0" precision="FP32">
					<dim>1</dim>
					<dim>3</dim>
					<dim>576</dim>
					<dim>320</dim>
				</port>
				<port id="1" precision="FP32">
					<dim>1</dim>
					<dim>3</dim>
					<dim>576</dim>
					<dim>320</dim>
				</port>
			</input>
			<output>
				<port id="2" precision="FP32" names="/Concat_output_0">
					<dim>2</dim>
					<dim>3</dim>
					<dim>576</dim>
					<dim>320</dim>
				</port>
			</output>
		</layer>
		<layer id="19" name="backbone.conv1.weight_compressed" type="Const" version="opset1">
			<data element_type="f16" shape="64, 3, 7, 7" offset="14" size="18816" />
			<output>
				<port id="0" precision="FP16" names="backbone.conv1.weight">
					<dim>64</dim>
					<dim>3</dim>
					<dim>7</dim>
					<dim>7</dim>
				</port>
			</output>
		</layer>
		<layer id="20" name="backbone.conv1.weight" type="Convert" version="opset1">
			<data destination_type="f32" />
			<rt_info>
				<attribute name="decompression" version="0" />
			</rt_info>
			<input>
				<port id="0" precision="FP16">
					<dim>64</dim>
					<dim>3</dim>
					<dim>7</dim>
					<dim>7</dim>
				</port>
			</input>
			<output>
				<port id="1" precision="FP32">
					<dim>64</dim>
					<dim>3</dim>
					<dim>7</dim>
					<dim>7</dim>
				</port>
			</output>
		</layer>
		<layer id="21" name="/backbone/conv1/Conv" type="Convolution" version="opset1">
			<data strides="2, 2" dilations="1, 1" pads_begin="3, 3" pads_end="3, 3" auto_pad="explicit" />
			<input>
				<port id="0" precision="FP32">
					<dim>2</dim>
					<dim>3</dim>
					<dim>576</dim>
					<dim>320</dim>
				</port>
				<port id="1" precision="FP32">
					<dim>64</dim>
					<dim>3</dim>
					<dim>7</dim>
					<dim>7</dim>
				</port>
			</input>
			<output>
				<port id="2" precision="FP32" names="/backbone/conv1/Conv_output_0">
					<dim>2</dim>
					<dim>64</dim>
					<dim>288</dim>
					<dim>160</dim>
				</port>
			</output>
		</layer>
		<layer id="22" name="Constant_174" type="Const" version="opset1">
			<data element_type="i64" shape="2" offset="18830" size="16" />
			<output>
				<port id="0" precision="I64">
					<dim>2</dim>
				</port>
			</output>
		</layer>
		<layer id="23" name="MVN_175" type="MVN" version="opset6">
			<data eps="9.9999997473787516e-06" normalize_variance="true" eps_mode="INSIDE_SQRT" />
			<input>
				<port id="0" precision="FP32">
					<dim>2</dim>
					<dim>64</dim>
					<dim>288</dim>
					<dim>160</dim>
				</port>
				<port id="1" precision="I64">
					<dim>2</dim>
				</port>
			</input>
			<output>
				<port id="2" precision="FP32" names="/backbone/norm1/InstanceNormalization_output_0">
					<dim>2</dim>
					<dim>64</dim>
					<dim>288</dim>
					<dim>160</dim>
				</port>
			</output>
		</layer>
		<layer id="24" name="/backbone/relu1/Relu" type="ReLU" version="opset1">
			<input>
				<port id="0" precision="FP32">
					<dim>2</dim>
					<dim>64</dim>
					<dim>288</dim>
					<dim>160</dim>
				</port>
			</input>
			<output>
				<port id="1" precision="FP32" names="/backbone/relu1/Relu_output_0">
					<dim>2</dim>
					<dim>64</dim>
					<dim>288</dim>
					<dim>160</dim>
				</port>
			</output>
		</layer>
		<layer id="25" name="backbone.layer1.0.conv1.weight_compressed" type="Const" version="opset1">
			<data element_type="f16" shape="64, 64, 3, 3" offset="18846" size="73728" />
			<output>
				<port id="0" precision="FP16" names="backbone.layer1.0.conv1.weight">
					<dim>64</dim>
					<dim>64</dim>
					<dim>3</dim>
					<dim>3</dim>
				</port>
			</output>
		</layer>
		<layer id="26" name="backbone.layer1.0.conv1.weight" type="Convert" version="opset1">
			<data destination_type="f32" />
			<rt_info>
				<attribute name="decompression" version="0" />
			</rt_info>
			<input>
				<port id="0" precision="FP16">
					<dim>64</dim>
					<dim>64</dim>
					<dim>3</dim>
					<dim>3</dim>
				</port>
			</input>
			<output>
				<port id="1" precision="FP32">
					<dim>64</dim>
					<dim>64</dim>
					<dim>3</dim>
					<dim>3</dim>
				</port>
			</output>
		</layer>
		<layer id="27" name="/backbone/layer1/layer1.0/conv1/Conv" type="Convolution" version="opset1">
			<data strides="1, 1" dilations="1, 1" pads_begin="1, 1" pads_end="1, 1" auto_pad="explicit" />
			<input>
				<port id="0" precision="FP32">
					<dim>2</dim>
					<dim>64</dim>
					<dim>288</dim>
					<dim>160</dim>
				</port>
				<port id="1" precision="FP32">
					<dim>64</dim>
					<dim>64</dim>
					<dim>3</dim>
					<dim>3</dim>
				</port>
			</input>
			<output>
				<port id="2" precision="FP32" names="/backbone/layer1/layer1.0/conv1/Conv_output_0">
					<dim>2</dim>
					<dim>64</dim>
					<dim>288</dim>
					<dim>160</dim>
				</port>
			</output>
		</layer>
		<layer id="28" name="Constant_209" type="Const" version="opset1">
			<data element_type="i64" shape="2" offset="18830" size="16" />
			<output>
				<port id="0" precision="I64">
					<dim>2</dim>
				</port>
			</output>
		</layer>
		<layer id="29" name="MVN_210" type="MVN" version="opset6">
			<data eps="9.9999997473787516e-06" normalize_variance="true" eps_mode="INSIDE_SQRT" />
			<input>
				<port id="0" precision="FP32">
					<dim>2</dim>
					<dim>64</dim>
					<dim>288</dim>
					<dim>160</dim>
				</port>
				<port id="1" precision="I64">
					<dim>2</dim>
				</port>
			</input>
			<output>
				<port id="2" precision="FP32" names="/backbone/layer1/layer1.0/norm1/InstanceNormalization_output_0">
					<dim>2</dim>
					<dim>64</dim>
					<dim>288</dim>
					<dim>160</dim>
				</port>
			</output>
		</layer>
		<layer id="30" name="/backbone/layer1/layer1.0/relu/Relu" type="ReLU" version="opset1">
			<input>
				<port id="0" precision="FP32">
					<dim>2</dim>
					<dim>64</dim>
					<dim>288</dim>
					<dim>160</dim>
				</port>
			</input>
			<output>
				<port id="1" precision="FP32" names="/backbone/layer1/layer1.0/relu/Relu_output_0">
					<dim>2</dim>
					<dim>64</dim>
					<dim>288</dim>
					<dim>160</dim>
				</port>
			</output>
		</layer>
		<layer id="31" name="backbone.layer1.0.conv2.weight_compressed" type="Const" version="opset1">
			<data element_type="f16" shape="64, 64, 3, 3" offset="92574" size="73728" />
			<output>
				<port id="0" precision="FP16" names="backbone.layer1.0.conv2.weight">
					<dim>64</dim>
					<dim>64</dim>
					<dim>3</dim>
					<dim>3</dim>
				</port>
			</output>
		</layer>
		<layer id="32" name="backbone.layer1.0.conv2.weight" type="Convert" version="opset1">
			<data destination_type="f32" />
			<rt_info>
				<attribute name="decompression" version="0" />
			</rt_info>
			<input>
				<port id="0" precision="FP16">
					<dim>64</dim>
					<dim>64</dim>
					<dim>3</dim>
					<dim>3</dim>
				</port>
			</input>
			<output>
				<port id="1" precision="FP32">
					<dim>64</dim>
					<dim>64</dim>
					<dim>3</dim>
					<dim>3</dim>
				</port>
			</output>
		</layer>
		<layer id="33" name="/backbone/layer1/layer1.0/conv2/Conv" type="Convolution" version="opset1">
			<data strides="1, 1" dilations="1, 1" pads_begin="1, 1" pads_end="1, 1" auto_pad="explicit" />
			<input>
				<port id="0" precision="FP32">
					<dim>2</dim>
					<dim>64</dim>
					<dim>288</dim>
					<dim>160</dim>
				</port>
				<port id="1" precision="FP32">
					<dim>64</dim>
					<dim>64</dim>
					<dim>3</dim>
					<dim>3</dim>
				</port>
			</input>
			<output>
				<port id="2" precision="FP32" names="/backbone/layer1/layer1.0/conv2/Conv_output_0">
					<dim>2</dim>
					<dim>64</dim>
					<dim>288</dim>
					<dim>160</dim>
				</port>
			</output>
		</layer>
		<layer id="34" name="Constant_244" type="Const" version="opset1">
			<data element_type="i64" shape="2" offset="18830" size="16" />
			<output>
				<port id="0" precision="I64">
					<dim>2</dim>
				</port>
			</output>
		</layer>
		<layer id="35" name="MVN_245" type="MVN" version="opset6">
			<data eps="9.9999997473787516e-06" normalize_variance="true" eps_mode="INSIDE_SQRT" />
			<input>
				<port id="0" precision="FP32">
					<dim>2</dim>
					<dim>64</dim>
					<dim>288</dim>
					<dim>160</dim>
				</port>
				<port id="1" precision="I64">
					<dim>2</dim>
				</port>
			</input>
			<output>
				<port id="2" precision="FP32" names="/backbone/layer1/layer1.0/norm2/InstanceNormalization_output_0">
					<dim>2</dim>
					<dim>64</dim>
					<dim>288</dim>
					<dim>160</dim>
				</port>
			</output>
		</layer>
		<layer id="36" name="/backbone/layer1/layer1.0/relu_1/Relu" type="ReLU" version="opset1">
			<input>
				<port id="0" precision="FP32">
					<dim>2</dim>
					<dim>64</dim>
					<dim>288</dim>
					<dim>160</dim>
				</port>
			</input>
			<output>
				<port id="1" precision="FP32" names="/backbone/layer1/layer1.0/relu_1/Relu_output_0">
					<dim>2</dim>
					<dim>64</dim>
					<dim>288</dim>
					<dim>160</dim>
				</port>
			</output>
		</layer>
		<layer id="37" name="/backbone/layer1/layer1.0/Add" type="Add" version="opset1">
			<data auto_broadcast="numpy" />
			<input>
				<port id="0" precision="FP32">
					<dim>2</dim>
					<dim>64</dim>
					<dim>288</dim>
					<dim>160</dim>
				</port>
				<port id="1" precision="FP32">
					<dim>2</dim>
					<dim>64</dim>
					<dim>288</dim>
					<dim>160</dim>
				</port>
			</input>
			<output>
				<port id="2" precision="FP32" names="/backbone/layer1/layer1.0/Add_output_0">
					<dim>2</dim>
					<dim>64</dim>
					<dim>288</dim>
					<dim>160</dim>
				</port>
			</output>
		</layer>
		<layer id="38" name="/backbone/layer1/layer1.0/relu_2/Relu" type="ReLU" version="opset1">
			<input>
				<port id="0" precision="FP32">
					<dim>2</dim>
					<dim>64</dim>
					<dim>288</dim>
					<dim>160</dim>
				</port>
			</input>
			<output>
				<port id="1" precision="FP32" names="/backbone/layer1/layer1.0/relu_2/Relu_output_0">
					<dim>2</dim>
					<dim>64</dim>
					<dim>288</dim>
					<dim>160</dim>
				</port>
			</output>
		</layer>
		<layer id="39" name="backbone.layer1.1.conv1.weight_compressed" type="Const" version="opset1">
			<data element_type="f16" shape="64, 64, 3, 3" offset="166302" size="73728" />
			<output>
				<port id="0" precision="FP16" names="backbone.layer1.1.conv1.weight">
					<dim>64</dim>
					<dim>64</dim>
					<dim>3</dim>
					<dim>3</dim>
				</port>
			</output>
		</layer>
		<layer id="40" name="backbone.layer1.1.conv1.weight" type="Convert" version="opset1">
			<data destination_type="f32" />
			<rt_info>
				<attribute name="decompression" version="0" />
			</rt_info>
			<input>
				<port id="0" precision="FP16">
					<dim>64</dim>
					<dim>64</dim>
					<dim>3</dim>
					<dim>3</dim>
				</port>
			</input>
			<output>
				<port id="1" precision="FP32">
					<dim>64</dim>
					<dim>64</dim>
					<dim>3</dim>
					<dim>3</dim>
				</port>
			</output>
		</layer>
		<layer id="41" name="/backbone/layer1/layer1.1/conv1/Conv" type="Convolution" version="opset1">
			<data strides="1, 1" dilations="1, 1" pads_begin="1, 1" pads_end="1, 1" auto_pad="explicit" />
			<input>
				<port id="0" precision="FP32">
					<dim>2</dim>
					<dim>64</dim>
					<dim>288</dim>
					<dim>160</dim>
				</port>
				<port id="1" precision="FP32">
					<dim>64</dim>
					<dim>64</dim>
					<dim>3</dim>
					<dim>3</dim>
				</port>
			</input>
			<output>
				<port id="2" precision="FP32" names="/backbone/layer1/layer1.1/conv1/Conv_output_0">
					<dim>2</dim>
					<dim>64</dim>
					<dim>288</dim>
					<dim>160</dim>
				</port>
			</output>
		</layer>
		<layer id="42" name="Constant_281" type="Const" version="opset1">
			<data element_type="i64" shape="2" offset="18830" size="16" />
			<output>
				<port id="0" precision="I64">
					<dim>2</dim>
				</port>
			</output>
		</layer>
		<layer id="43" name="MVN_282" type="MVN" version="opset6">
			<data eps="9.9999997473787516e-06" normalize_variance="true" eps_mode="INSIDE_SQRT" />
			<input>
				<port id="0" precision="FP32">
					<dim>2</dim>
					<dim>64</dim>
					<dim>288</dim>
					<dim>160</dim>
				</port>
				<port id="1" precision="I64">
					<dim>2</dim>
				</port>
			</input>
			<output>
				<port id="2" precision="FP32" names="/backbone/layer1/layer1.1/norm1/InstanceNormalization_output_0">
					<dim>2</dim>
					<dim>64</dim>
					<dim>288</dim>
					<dim>160</dim>
				</port>
			</output>
		</layer>
		<layer id="44" name="/backbone/layer1/layer1.1/relu/Relu" type="ReLU" version="opset1">
			<input>
				<port id="0" precision="FP32">
					<dim>2</dim>
					<dim>64</dim>
					<dim>288</dim>
					<dim>160</dim>
				</port>
			</input>
			<output>
				<port id="1" precision="FP32" names="/backbone/layer1/layer1.1/relu/Relu_output_0">
					<dim>2</dim>
					<dim>64</dim>
					<dim>288</dim>
					<dim>160</dim>
				</port>
			</output>
		</layer>
		<layer id="45" name="backbone.layer1.1.conv2.weight_compressed" type="Const" version="opset1">
			<data element_type="f16" shape="64, 64, 3, 3" offset="240030" size="73728" />
			<output>
				<port id="0" precision="FP16" names="backbone.layer1.1.conv2.weight">
					<dim>64</dim>
					<dim>64</dim>
					<dim>3</dim>
					<dim>3</dim>
				</port>
			</output>
		</layer>
		<layer id="46" name="backbone.layer1.1.conv2.weight" type="Convert" version="opset1">
			<data destination_type="f32" />
			<rt_info>
				<attribute name="decompression" version="0" />
			</rt_info>
			<input>
				<port id="0" precision="FP16">
					<dim>64</dim>
					<dim>64</dim>
					<dim>3</dim>
					<dim>3</dim>
				</port>
			</input>
			<output>
				<port id="1" precision="FP32">
					<dim>64</dim>
					<dim>64</dim>
					<dim>3</dim>
					<dim>3</dim>
				</port>
			</output>
		</layer>
		<layer id="47" name="/backbone/layer1/layer1.1/conv2/Conv" type="Convolution" version="opset1">
			<data strides="1, 1" dilations="1, 1" pads_begin="1, 1" pads_end="1, 1" auto_pad="explicit" />
			<input>
				<port id="0" precision="FP32">
					<dim>2</dim>
					<dim>64</dim>
					<dim>288</dim>
					<dim>160</dim>
				</port>
				<port id="1" precision="FP32">
					<dim>64</dim>
					<dim>64</dim>
					<dim>3</dim>
					<dim>3</dim>
				</port>
			</input>
			<output>
				<port id="2" precision="FP32" names="/backbone/layer1/layer1.1/conv2/Conv_output_0">
					<dim>2</dim>
					<dim>64</dim>
					<dim>288</dim>
					<dim>160</dim>
				</port>
			</output>
		</layer>
		<layer id="48" name="Constant_316" type="Const" version="opset1">
			<data element_type="i64" shape="2" offset="18830" size="16" />
			<output>
				<port id="0" precision="I64">
					<dim>2</dim>
				</port>
			</output>
		</layer>
		<layer id="49" name="MVN_317" type="MVN" version="opset6">
			<data eps="9.9999997473787516e-06" normalize_variance="true" eps_mode="INSIDE_SQRT" />
			<input>
				<port id="0" precision="FP32">
					<dim>2</dim>
					<dim>64</dim>
					<dim>288</dim>
					<dim>160</dim>
				</port>
				<port id="1" precision="I64">
					<dim>2</dim>
				</port>
			</input>
			<output>
				<port id="2" precision="FP32" names="/backbone/layer1/layer1.1/norm2/InstanceNormalization_output_0">
					<dim>2</dim>
					<dim>64</dim>
					<dim>288</dim>
					<dim>160</dim>
				</port>
			</output>
		</layer>
		<layer id="50" name="/backbone/layer1/layer1.1/relu_1/Relu" type="ReLU" version="opset1">
			<input>
				<port id="0" precision="FP32">
					<dim>2</dim>
					<dim>64</dim>
					<dim>288</dim>
					<dim>160</dim>
				</port>
			</input>
			<output>
				<port id="1" precision="FP32" names="/backbone/layer1/layer1.1/relu_1/Relu_output_0">
					<dim>2</dim>
					<dim>64</dim>
					<dim>288</dim>
					<dim>160</dim>
				</port>
			</output>
		</layer>
		<layer id="51" name="/backbone/layer1/layer1.1/Add" type="Add" version="opset1">
			<data auto_broadcast="numpy" />
			<input>
				<port id="0" precision="FP32">
					<dim>2</dim>
					<dim>64</dim>
					<dim>288</dim>
					<dim>160</dim>
				</port>
				<port id="1" precision="FP32">
					<dim>2</dim>
					<dim>64</dim>
					<dim>288</dim>
					<dim>160</dim>
				</port>
			</input>
			<output>
				<port id="2" precision="FP32" names="/backbone/layer1/layer1.1/Add_output_0">
					<dim>2</dim>
					<dim>64</dim>
					<dim>288</dim>
					<dim>160</dim>
				</port>
			</output>
		</layer>
		<layer id="52" name="/backbone/layer1/layer1.1/relu_2/Relu" type="ReLU" version="opset1">
			<input>
				<port id="0" precision="FP32">
					<dim>2</dim>
					<dim>64</dim>
					<dim>288</dim>
					<dim>160</dim>
				</port>
			</input>
			<output>
				<port id="1" precision="FP32" names="/backbone/layer1/layer1.1/relu_2/Relu_output_0">
					<dim>2</dim>
					<dim>64</dim>
					<dim>288</dim>
					<dim>160</dim>
				</port>
			</output>
		</layer>
		<layer id="53" name="backbone.layer2.0.downsample.0.weight_compressed" type="Const" version="opset1">
			<data element_type="f16" shape="96, 64, 1, 1" offset="313758" size="12288" />
			<output>
				<port id="0" precision="FP16" names="backbone.layer2.0.downsample.0.weight">
					<dim>96</dim>
					<dim>64</dim>
					<dim>1</dim>
					<dim>1</dim>
				</port>
			</output>
		</layer>
		<layer id="54" name="backbone.layer2.0.downsample.0.weight" type="Convert" version="opset1">
			<data destination_type="f32" />
			<rt_info>
				<attribute name="decompression" version="0" />
			</rt_info>
			<input>
				<port id="0" precision="FP16">
					<dim>96</dim>
					<dim>64</dim>
					<dim>1</dim>
					<dim>1</dim>
				</port>
			</input>
			<output>
				<port id="1" precision="FP32">
					<dim>96</dim>
					<dim>64</dim>
					<dim>1</dim>
					<dim>1</dim>
				</port>
			</output>
		</layer>
		<layer id="55" name="/backbone/layer2/layer2.0/downsample/downsample.0/Conv/WithoutBiases" type="Convolution" version="opset1">
			<data strides="2, 2" dilations="1, 1" pads_begin="0, 0" pads_end="0, 0" auto_pad="explicit" />
			<input>
				<port id="0" precision="FP32">
					<dim>2</dim>
					<dim>64</dim>
					<dim>288</dim>
					<dim>160</dim>
				</port>
				<port id="1" precision="FP32">
					<dim>96</dim>
					<dim>64</dim>
					<dim>1</dim>
					<dim>1</dim>
				</port>
			</input>
			<output>
				<port id="2" precision="FP32">
					<dim>2</dim>
					<dim>96</dim>
					<dim>144</dim>
					<dim>80</dim>
				</port>
			</output>
		</layer>
		<layer id="56" name="Reshape_431_compressed" type="Const" version="opset1">
			<data element_type="f16" shape="1, 96, 1, 1" offset="326046" size="192" />
			<output>
				<port id="0" precision="FP16">
					<dim>1</dim>
					<dim>96</dim>
					<dim>1</dim>
					<dim>1</dim>
				</port>
			</output>
		</layer>
		<layer id="57" name="Reshape_431" type="Convert" version="opset1">
			<data destination_type="f32" />
			<rt_info>
				<attribute name="decompression" version="0" />
			</rt_info>
			<input>
				<port id="0" precision="FP16">
					<dim>1</dim>
					<dim>96</dim>
					<dim>1</dim>
					<dim>1</dim>
				</port>
			</input>
			<output>
				<port id="1" precision="FP32">
					<dim>1</dim>
					<dim>96</dim>
					<dim>1</dim>
					<dim>1</dim>
				</port>
			</output>
		</layer>
		<layer id="58" name="/backbone/layer2/layer2.0/downsample/downsample.0/Conv" type="Add" version="opset1">
			<data auto_broadcast="numpy" />
			<input>
				<port id="0" precision="FP32">
					<dim>2</dim>
					<dim>96</dim>
					<dim>144</dim>
					<dim>80</dim>
				</port>
				<port id="1" precision="FP32">
					<dim>1</dim>
					<dim>96</dim>
					<dim>1</dim>
					<dim>1</dim>
				</port>
			</input>
			<output>
				<port id="2" precision="FP32" names="/backbone/layer2/layer2.0/downsample/downsample.0/Conv_output_0">
					<dim>2</dim>
					<dim>96</dim>
					<dim>144</dim>
					<dim>80</dim>
				</port>
			</output>
		</layer>
		<layer id="59" name="Constant_437" type="Const" version="opset1">
			<data element_type="i64" shape="2" offset="18830" size="16" />
			<output>
				<port id="0" precision="I64">
					<dim>2</dim>
				</port>
			</output>
		</layer>
		<layer id="60" name="MVN_438" type="MVN" version="opset6">
			<data eps="9.9999997473787516e-06" normalize_variance="true" eps_mode="INSIDE_SQRT" />
			<input>
				<port id="0" precision="FP32">
					<dim>2</dim>
					<dim>96</dim>
					<dim>144</dim>
					<dim>80</dim>
				</port>
				<port id="1" precision="I64">
					<dim>2</dim>
				</port>
			</input>
			<output>
				<port id="2" precision="FP32" names="/backbone/layer2/layer2.0/downsample/norm3/InstanceNormalization_output_0">
					<dim>2</dim>
					<dim>96</dim>
					<dim>144</dim>
					<dim>80</dim>
				</port>
			</output>
		</layer>
		<layer id="61" name="backbone.layer2.0.conv1.weight_compressed" type="Const" version="opset1">
			<data element_type="f16" shape="96, 64, 3, 3" offset="326238" size="110592" />
			<output>
				<port id="0" precision="FP16" names="backbone.layer2.0.conv1.weight">
					<dim>96</dim>
					<dim>64</dim>
					<dim>3</dim>
					<dim>3</dim>
				</port>
			</output>
		</layer>
		<layer id="62" name="backbone.layer2.0.conv1.weight" type="Convert" version="opset1">
			<data destination_type="f32" />
			<rt_info>
				<attribute name="decompression" version="0" />
			</rt_info>
			<input>
				<port id="0" precision="FP16">
					<dim>96</dim>
					<dim>64</dim>
					<dim>3</dim>
					<dim>3</dim>
				</port>
			</input>
			<output>
				<port id="1" precision="FP32">
					<dim>96</dim>
					<dim>64</dim>
					<dim>3</dim>
					<dim>3</dim>
				</port>
			</output>
		</layer>
		<layer id="63" name="/backbone/layer2/layer2.0/conv1/Conv" type="Convolution" version="opset1">
			<data strides="2, 2" dilations="1, 1" pads_begin="1, 1" pads_end="1, 1" auto_pad="explicit" />
			<input>
				<port id="0" precision="FP32">
					<dim>2</dim>
					<dim>64</dim>
					<dim>288</dim>
					<dim>160</dim>
				</port>
				<port id="1" precision="FP32">
					<dim>96</dim>
					<dim>64</dim>
					<dim>3</dim>
					<dim>3</dim>
				</port>
			</input>
			<output>
				<port id="2" precision="FP32" names="/backbone/layer2/layer2.0/conv1/Conv_output_0">
					<dim>2</dim>
					<dim>96</dim>
					<dim>144</dim>
					<dim>80</dim>
				</port>
			</output>
		</layer>
		<layer id="64" name="Constant_353" type="Const" version="opset1">
			<data element_type="i64" shape="2" offset="18830" size="16" />
			<output>
				<port id="0" precision="I64">
					<dim>2</dim>
				</port>
			</output>
		</layer>
		<layer id="65" name="MVN_354" type="MVN" version="opset6">
			<data eps="9.9999997473787516e-06" normalize_variance="true" eps_mode="INSIDE_SQRT" />
			<input>
				<port id="0" precision="FP32">
					<dim>2</dim>
					<dim>96</dim>
					<dim>144</dim>
					<dim>80</dim>
				</port>
				<port id="1" precision="I64">
					<dim>2</dim>
				</port>
			</input>
			<output>
				<port id="2" precision="FP32" names="/backbone/layer2/layer2.0/norm1/InstanceNormalization_output_0">
					<dim>2</dim>
					<dim>96</dim>
					<dim>144</dim>
					<dim>80</dim>
				</port>
			</output>
		</layer>
		<layer id="66" name="/backbone/layer2/layer2.0/relu/Relu" type="ReLU" version="opset1">
			<input>
				<port id="0" precision="FP32">
					<dim>2</dim>
					<dim>96</dim>
					<dim>144</dim>
					<dim>80</dim>
				</port>
			</input>
			<output>
				<port id="1" precision="FP32" names="/backbone/layer2/layer2.0/relu/Relu_output_0">
					<dim>2</dim>
					<dim>96</dim>
					<dim>144</dim>
					<dim>80</dim>
				</port>
			</output>
		</layer>
		<layer id="67" name="backbone.layer2.0.conv2.weight_compressed" type="Const" version="opset1">
			<data element_type="f16" shape="96, 96, 3, 3" offset="436830" size="165888" />
			<output>
				<port id="0" precision="FP16" names="backbone.layer2.0.conv2.weight">
					<dim>96</dim>
					<dim>96</dim>
					<dim>3</dim>
					<dim>3</dim>
				</port>
			</output>
		</layer>
		<layer id="68" name="backbone.layer2.0.conv2.weight" type="Convert" version="opset1">
			<data destination_type="f32" />
			<rt_info>
				<attribute name="decompression" version="0" />
			</rt_info>
			<input>
				<port id="0" precision="FP16">
					<dim>96</dim>
					<dim>96</dim>
					<dim>3</dim>
					<dim>3</dim>
				</port>
			</input>
			<output>
				<port id="1" precision="FP32">
					<dim>96</dim>
					<dim>96</dim>
					<dim>3</dim>
					<dim>3</dim>
				</port>
			</output>
		</layer>
		<layer id="69" name="/backbone/layer2/layer2.0/conv2/Conv" type="Convolution" version="opset1">
			<data strides="1, 1" dilations="1, 1" pads_begin="1, 1" pads_end="1, 1" auto_pad="explicit" />
			<input>
				<port id="0" precision="FP32">
					<dim>2</dim>
					<dim>96</dim>
					<dim>144</dim>
					<dim>80</dim>
				</port>
				<port id="1" precision="FP32">
					<dim>96</dim>
					<dim>96</dim>
					<dim>3</dim>
					<dim>3</dim>
				</port>
			</input>
			<output>
				<port id="2" precision="FP32" names="/backbone/layer2/layer2.0/conv2/Conv_output_0">
					<dim>2</dim>
					<dim>96</dim>
					<dim>144</dim>
					<dim>80</dim>
				</port>
			</output>
		</layer>
		<layer id="70" name="Constant_388" type="Const" version="opset1">
			<data element_type="i64" shape="2" offset="18830" size="16" />
			<output>
				<port id="0" precision="I64">
					<dim>2</dim>
				</port>
			</output>
		</layer>
		<layer id="71" name="MVN_389" type="MVN" version="opset6">
			<data eps="9.9999997473787516e-06" normalize_variance="true" eps_mode="INSIDE_SQRT" />
			<input>
				<port id="0" precision="FP32">
					<dim>2</dim>
					<dim>96</dim>
					<dim>144</dim>
					<dim>80</dim>
				</port>
				<port id="1" precision="I64">
					<dim>2</dim>
				</port>
			</input>
			<output>
				<port id="2" precision="FP32" names="/backbone/layer2/layer2.0/norm2/InstanceNormalization_output_0">
					<dim>2</dim>
					<dim>96</dim>
					<dim>144</dim>
					<dim>80</dim>
				</port>
			</output>
		</layer>
		<layer id="72" name="/backbone/layer2/layer2.0/relu_1/Relu" type="ReLU" version="opset1">
			<input>
				<port id="0" precision="FP32">
					<dim>2</dim>
					<dim>96</dim>
					<dim>144</dim>
					<dim>80</dim>
				</port>
			</input>
			<output>
				<port id="1" precision="FP32" names="/backbone/layer2/layer2.0/relu_1/Relu_output_0">
					<dim>2</dim>
					<dim>96</dim>
					<dim>144</dim>
					<dim>80</dim>
				</port>
			</output>
		</layer>
		<layer id="73" name="/backbone/layer2/layer2.0/Add" type="Add" version="opset1">
			<data auto_broadcast="numpy" />
			<input>
				<port id="0" precision="FP32">
					<dim>2</dim>
					<dim>96</dim>
					<dim>144</dim>
					<dim>80</dim>
				</port>
				<port id="1" precision="FP32">
					<dim>2</dim>
					<dim>96</dim>
					<dim>144</dim>
					<dim>80</dim>
				</port>
			</input>
			<output>
				<port id="2" precision="FP32" names="/backbone/layer2/layer2.0/Add_output_0">
					<dim>2</dim>
					<dim>96</dim>
					<dim>144</dim>
					<dim>80</dim>
				</port>
			</output>
		</layer>
		<layer id="74" name="/backbone/layer2/layer2.0/relu_2/Relu" type="ReLU" version="opset1">
			<input>
				<port id="0" precision="FP32">
					<dim>2</dim>
					<dim>96</dim>
					<dim>144</dim>
					<dim>80</dim>
				</port>
			</input>
			<output>
				<port id="1" precision="FP32" names="/backbone/layer2/layer2.0/relu_2/Relu_output_0">
					<dim>2</dim>
					<dim>96</dim>
					<dim>144</dim>
					<dim>80</dim>
				</port>
			</output>
		</layer>
		<layer id="75" name="backbone.layer2.1.conv1.weight_compressed" type="Const" version="opset1">
			<data element_type="f16" shape="96, 96, 3, 3" offset="602718" size="165888" />
			<output>
				<port id="0" precision="FP16" names="backbone.layer2.1.conv1.weight">
					<dim>96</dim>
					<dim>96</dim>
					<dim>3</dim>
					<dim>3</dim>
				</port>
			</output>
		</layer>
		<layer id="76" name="backbone.layer2.1.conv1.weight" type="Convert" version="opset1">
			<data destination_type="f32" />
			<rt_info>
				<attribute name="decompression" version="0" />
			</rt_info>
			<input>
				<port id="0" precision="FP16">
					<dim>96</dim>
					<dim>96</dim>
					<dim>3</dim>
					<dim>3</dim>
				</port>
			</input>
			<output>
				<port id="1" precision="FP32">
					<dim>96</dim>
					<dim>96</dim>
					<dim>3</dim>
					<dim>3</dim>
				</port>
			</output>
		</layer>
		<layer id="77" name="/backbone/layer2/layer2.1/conv1/Conv" type="Convolution" version="opset1">
			<data strides="1, 1" dilations="1, 1" pads_begin="1, 1" pads_end="1, 1" auto_pad="explicit" />
			<input>
				<port id="0" precision="FP32">
					<dim>2</dim>
					<dim>96</dim>
					<dim>144</dim>
					<dim>80</dim>
				</port>
				<port id="1" precision="FP32">
					<dim>96</dim>
					<dim>96</dim>
					<dim>3</dim>
					<dim>3</dim>
				</port>
			</input>
			<output>
				<port id="2" precision="FP32" names="/backbone/layer2/layer2.1/conv1/Conv_output_0">
					<dim>2</dim>
					<dim>96</dim>
					<dim>144</dim>
					<dim>80</dim>
				</port>
			</output>
		</layer>
		<layer id="78" name="Constant_473" type="Const" version="opset1">
			<data element_type="i64" shape="2" offset="18830" size="16" />
			<output>
				<port id="0" precision="I64">
					<dim>2</dim>
				</port>
			</output>
		</layer>
		<layer id="79" name="MVN_474" type="MVN" version="opset6">
			<data eps="9.9999997473787516e-06" normalize_variance="true" eps_mode="INSIDE_SQRT" />
			<input>
				<port id="0" precision="FP32">
					<dim>2</dim>
					<dim>96</dim>
					<dim>144</dim>
					<dim>80</dim>
				</port>
				<port id="1" precision="I64">
					<dim>2</dim>
				</port>
			</input>
			<output>
				<port id="2" precision="FP32" names="/backbone/layer2/layer2.1/norm1/InstanceNormalization_output_0">
					<dim>2</dim>
					<dim>96</dim>
					<dim>144</dim>
					<dim>80</dim>
				</port>
			</output>
		</layer>
		<layer id="80" name="/backbone/layer2/layer2.1/relu/Relu" type="ReLU" version="opset1">
			<input>
				<port id="0" precision="FP32">
					<dim>2</dim>
					<dim>96</dim>
					<dim>144</dim>
					<dim>80</dim>
				</port>
			</input>
			<output>
				<port id="1" precision="FP32" names="/backbone/layer2/layer2.1/relu/Relu_output_0">
					<dim>2</dim>
					<dim>96</dim>
					<dim>144</dim>
					<dim>80</dim>
				</port>
			</output>
		</layer>
		<layer id="81" name="backbone.layer2.1.conv2.weight_compressed" type="Const" version="opset1">
			<data element_type="f16" shape="96, 96, 3, 3" offset="768606" size="165888" />
			<output>
				<port id="0" precision="FP16" names="backbone.layer2.1.conv2.weight">
					<dim>96</dim>
					<dim>96</dim>
					<dim>3</dim>
					<dim>3</dim>
				</port>
			</output>
		</layer>
		<layer id="82" name="backbone.layer2.1.conv2.weight" type="Convert" version="opset1">
			<data destination_type="f32" />
			<rt_info>
				<attribute name="decompression" version="0" />
			</rt_info>
			<input>
				<port id="0" precision="FP16">
					<dim>96</dim>
					<dim>96</dim>
					<dim>3</dim>
					<dim>3</dim>
				</port>
			</input>
			<output>
				<port id="1" precision="FP32">
					<dim>96</dim>
					<dim>96</dim>
					<dim>3</dim>
					<dim>3</dim>
				</port>
			</output>
		</layer>
		<layer id="83" name="/backbone/layer2/layer2.1/conv2/Conv" type="Convolution" version="opset1">
			<data strides="1, 1" dilations="1, 1" pads_begin="1, 1" pads_end="1, 1" auto_pad="explicit" />
			<input>
				<port id="0" precision="FP32">
					<dim>2</dim>
					<dim>96</dim>
					<dim>144</dim>
					<dim>80</dim>
				</port>
				<port id="1" precision="FP32">
					<dim>96</dim>
					<dim>96</dim>
					<dim>3</dim>
					<dim>3</dim>
				</port>
			</input>
			<output>
				<port id="2" precision="FP32" names="/backbone/layer2/layer2.1/conv2/Conv_output_0">
					<dim>2</dim>
					<dim>96</dim>
					<dim>144</dim>
					<dim>80</dim>
				</port>
			</output>
		</layer>
		<layer id="84" name="Constant_508" type="Const" version="opset1">
			<data element_type="i64" shape="2" offset="18830" size="16" />
			<output>
				<port id="0" precision="I64">
					<dim>2</dim>
				</port>
			</output>
		</layer>
		<layer id="85" name="MVN_509" type="MVN" version="opset6">
			<data eps="9.9999997473787516e-06" normalize_variance="true" eps_mode="INSIDE_SQRT" />
			<input>
				<port id="0" precision="FP32">
					<dim>2</dim>
					<dim>96</dim>
					<dim>144</dim>
					<dim>80</dim>
				</port>
				<port id="1" precision="I64">
					<dim>2</dim>
				</port>
			</input>
			<output>
				<port id="2" precision="FP32" names="/backbone/layer2/layer2.1/norm2/InstanceNormalization_output_0">
					<dim>2</dim>
					<dim>96</dim>
					<dim>144</dim>
					<dim>80</dim>
				</port>
			</output>
		</layer>
		<layer id="86" name="/backbone/layer2/layer2.1/relu_1/Relu" type="ReLU" version="opset1">
			<input>
				<port id="0" precision="FP32">
					<dim>2</dim>
					<dim>96</dim>
					<dim>144</dim>
					<dim>80</dim>
				</port>
			</input>
			<output>
				<port id="1" precision="FP32" names="/backbone/layer2/layer2.1/relu_1/Relu_output_0">
					<dim>2</dim>
					<dim>96</dim>
					<dim>144</dim>
					<dim>80</dim>
				</port>
			</output>
		</layer>
		<layer id="87" name="/backbone/layer2/layer2.1/Add" type="Add" version="opset1">
			<data auto_broadcast="numpy" />
			<input>
				<port id="0" precision="FP32">
					<dim>2</dim>
					<dim>96</dim>
					<dim>144</dim>
					<dim>80</dim>
				</port>
				<port id="1" precision="FP32">
					<dim>2</dim>
					<dim>96</dim>
					<dim>144</dim>
					<dim>80</dim>
				</port>
			</input>
			<output>
				<port id="2" precision="FP32" names="/backbone/layer2/layer2.1/Add_output_0">
					<dim>2</dim>
					<dim>96</dim>
					<dim>144</dim>
					<dim>80</dim>
				</port>
			</output>
		</layer>
		<layer id="88" name="/backbone/layer2/layer2.1/relu_2/Relu" type="ReLU" version="opset1">
			<input>
				<port id="0" precision="FP32">
					<dim>2</dim>
					<dim>96</dim>
					<dim>144</dim>
					<dim>80</dim>
				</port>
			</input>
			<output>
				<port id="1" precision="FP32" names="/backbone/layer2/layer2.1/relu_2/Relu_output_0">
					<dim>2</dim>
					<dim>96</dim>
					<dim>144</dim>
					<dim>80</dim>
				</port>
			</output>
		</layer>
		<layer id="89" name="backbone.layer3.0.downsample.0.weight_compressed" type="Const" version="opset1">
			<data element_type="f16" shape="128, 96, 1, 1" offset="934494" size="24576" />
			<output>
				<port id="0" precision="FP16" names="backbone.layer3.0.downsample.0.weight">
					<dim>128</dim>
					<dim>96</dim>
					<dim>1</dim>
					<dim>1</dim>
				</port>
			</output>
		</layer>
		<layer id="90" name="backbone.layer3.0.downsample.0.weight" type="Convert" version="opset1">
			<data destination_type="f32" />
			<rt_info>
				<attribute name="decompression" version="0" />
			</rt_info>
			<input>
				<port id="0" precision="FP16">
					<dim>128</dim>
					<dim>96</dim>
					<dim>1</dim>
					<dim>1</dim>
				</port>
			</input>
			<output>
				<port id="1" precision="FP32">
					<dim>128</dim>
					<dim>96</dim>
					<dim>1</dim>
					<dim>1</dim>
				</port>
			</output>
		</layer>
		<layer id="91" name="/backbone/layer3/layer3.0/downsample/downsample.0/Conv/WithoutBiases" type="Convolution" version="opset1">
			<data strides="1, 1" dilations="1, 1" pads_begin="0, 0" pads_end="0, 0" auto_pad="explicit" />
			<input>
				<port id="0" precision="FP32">
					<dim>2</dim>
					<dim>96</dim>
					<dim>144</dim>
					<dim>80</dim>
				</port>
				<port id="1" precision="FP32">
					<dim>128</dim>
					<dim>96</dim>
					<dim>1</dim>
					<dim>1</dim>
				</port>
			</input>
			<output>
				<port id="2" precision="FP32">
					<dim>2</dim>
					<dim>128</dim>
					<dim>144</dim>
					<dim>80</dim>
				</port>
			</output>
		</layer>
		<layer id="92" name="Reshape_623_compressed" type="Const" version="opset1">
			<data element_type="f16" shape="1, 128, 1, 1" offset="959070" size="256" />
			<output>
				<port id="0" precision="FP16">
					<dim>1</dim>
					<dim>128</dim>
					<dim>1</dim>
					<dim>1</dim>
				</port>
			</output>
		</layer>
		<layer id="93" name="Reshape_623" type="Convert" version="opset1">
			<data destination_type="f32" />
			<rt_info>
				<attribute name="decompression" version="0" />
			</rt_info>
			<input>
				<port id="0" precision="FP16">
					<dim>1</dim>
					<dim>128</dim>
					<dim>1</dim>
					<dim>1</dim>
				</port>
			</input>
			<output>
				<port id="1" precision="FP32">
					<dim>1</dim>
					<dim>128</dim>
					<dim>1</dim>
					<dim>1</dim>
				</port>
			</output>
		</layer>
		<layer id="94" name="/backbone/layer3/layer3.0/downsample/downsample.0/Conv" type="Add" version="opset1">
			<data auto_broadcast="numpy" />
			<input>
				<port id="0" precision="FP32">
					<dim>2</dim>
					<dim>128</dim>
					<dim>144</dim>
					<dim>80</dim>
				</port>
				<port id="1" precision="FP32">
					<dim>1</dim>
					<dim>128</dim>
					<dim>1</dim>
					<dim>1</dim>
				</port>
			</input>
			<output>
				<port id="2" precision="FP32" names="/backbone/layer3/layer3.0/downsample/downsample.0/Conv_output_0">
					<dim>2</dim>
					<dim>128</dim>
					<dim>144</dim>
					<dim>80</dim>
				</port>
			</output>
		</layer>
		<layer id="95" name="Constant_629" type="Const" version="opset1">
			<data element_type="i64" shape="2" offset="18830" size="16" />
			<output>
				<port id="0" precision="I64">
					<dim>2</dim>
				</port>
			</output>
		</layer>
		<layer id="96" name="MVN_630" type="MVN" version="opset6">
			<data eps="9.9999997473787516e-06" normalize_variance="true" eps_mode="INSIDE_SQRT" />
			<input>
				<port id="0" precision="FP32">
					<dim>2</dim>
					<dim>128</dim>
					<dim>144</dim>
					<dim>80</dim>
				</port>
				<port id="1" precision="I64">
					<dim>2</dim>
				</port>
			</input>
			<output>
				<port id="2" precision="FP32" names="/backbone/layer3/layer3.0/downsample/norm3/InstanceNormalization_output_0">
					<dim>2</dim>
					<dim>128</dim>
					<dim>144</dim>
					<dim>80</dim>
				</port>
			</output>
		</layer>
		<layer id="97" name="backbone.layer3.0.conv1.weight_compressed" type="Const" version="opset1">
			<data element_type="f16" shape="128, 96, 3, 3" offset="959326" size="221184" />
			<output>
				<port id="0" precision="FP16" names="backbone.layer3.0.conv1.weight">
					<dim>128</dim>
					<dim>96</dim>
					<dim>3</dim>
					<dim>3</dim>
				</port>
			</output>
		</layer>
		<layer id="98" name="backbone.layer3.0.conv1.weight" type="Convert" version="opset1">
			<data destination_type="f32" />
			<rt_info>
				<attribute name="decompression" version="0" />
			</rt_info>
			<input>
				<port id="0" precision="FP16">
					<dim>128</dim>
					<dim>96</dim>
					<dim>3</dim>
					<dim>3</dim>
				</port>
			</input>
			<output>
				<port id="1" precision="FP32">
					<dim>128</dim>
					<dim>96</dim>
					<dim>3</dim>
					<dim>3</dim>
				</port>
			</output>
		</layer>
		<layer id="99" name="/backbone/layer3/layer3.0/conv1/Conv" type="Convolution" version="opset1">
			<data strides="1, 1" dilations="1, 1" pads_begin="1, 1" pads_end="1, 1" auto_pad="explicit" />
			<input>
				<port id="0" precision="FP32">
					<dim>2</dim>
					<dim>96</dim>
					<dim>144</dim>
					<dim>80</dim>
				</port>
				<port id="1" precision="FP32">
					<dim>128</dim>
					<dim>96</dim>
					<dim>3</dim>
					<dim>3</dim>
				</port>
			</input>
			<output>
				<port id="2" precision="FP32" names="/backbone/layer3/layer3.0/conv1/Conv_output_0">
					<dim>2</dim>
					<dim>128</dim>
					<dim>144</dim>
					<dim>80</dim>
				</port>
			</output>
		</layer>
		<layer id="100" name="Constant_545" type="Const" version="opset1">
			<data element_type="i64" shape="2" offset="18830" size="16" />
			<output>
				<port id="0" precision="I64">
					<dim>2</dim>
				</port>
			</output>
		</layer>
		<layer id="101" name="MVN_546" type="MVN" version="opset6">
			<data eps="9.9999997473787516e-06" normalize_variance="true" eps_mode="INSIDE_SQRT" />
			<input>
				<port id="0" precision="FP32">
					<dim>2</dim>
					<dim>128</dim>
					<dim>144</dim>
					<dim>80</dim>
				</port>
				<port id="1" precision="I64">
					<dim>2</dim>
				</port>
			</input>
			<output>
				<port id="2" precision="FP32" names="/backbone/layer3/layer3.0/norm1/InstanceNormalization_output_0">
					<dim>2</dim>
					<dim>128</dim>
					<dim>144</dim>
					<dim>80</dim>
				</port>
			</output>
		</layer>
		<layer id="102" name="/backbone/layer3/layer3.0/relu/Relu" type="ReLU" version="opset1">
			<input>
				<port id="0" precision="FP32">
					<dim>2</dim>
					<dim>128</dim>
					<dim>144</dim>
					<dim>80</dim>
				</port>
			</input>
			<output>
				<port id="1" precision="FP32" names="/backbone/layer3/layer3.0/relu/Relu_output_0">
					<dim>2</dim>
					<dim>128</dim>
					<dim>144</dim>
					<dim>80</dim>
				</port>
			</output>
		</layer>
		<layer id="103" name="backbone.layer3.0.conv2.weight_compressed" type="Const" version="opset1">
			<data element_type="f16" shape="128, 128, 3, 3" offset="1180510" size="294912" />
			<output>
				<port id="0" precision="FP16" names="backbone.layer3.0.conv2.weight">
					<dim>128</dim>
					<dim>128</dim>
					<dim>3</dim>
					<dim>3</dim>
				</port>
			</output>
		</layer>
		<layer id="104" name="backbone.layer3.0.conv2.weight" type="Convert" version="opset1">
			<data destination_type="f32" />
			<rt_info>
				<attribute name="decompression" version="0" />
			</rt_info>
			<input>
				<port id="0" precision="FP16">
					<dim>128</dim>
					<dim>128</dim>
					<dim>3</dim>
					<dim>3</dim>
				</port>
			</input>
			<output>
				<port id="1" precision="FP32">
					<dim>128</dim>
					<dim>128</dim>
					<dim>3</dim>
					<dim>3</dim>
				</port>
			</output>
		</layer>
		<layer id="105" name="/backbone/layer3/layer3.0/conv2/Conv" type="Convolution" version="opset1">
			<data strides="1, 1" dilations="1, 1" pads_begin="1, 1" pads_end="1, 1" auto_pad="explicit" />
			<input>
				<port id="0" precision="FP32">
					<dim>2</dim>
					<dim>128</dim>
					<dim>144</dim>
					<dim>80</dim>
				</port>
				<port id="1" precision="FP32">
					<dim>128</dim>
					<dim>128</dim>
					<dim>3</dim>
					<dim>3</dim>
				</port>
			</input>
			<output>
				<port id="2" precision="FP32" names="/backbone/layer3/layer3.0/conv2/Conv_output_0">
					<dim>2</dim>
					<dim>128</dim>
					<dim>144</dim>
					<dim>80</dim>
				</port>
			</output>
		</layer>
		<layer id="106" name="Constant_580" type="Const" version="opset1">
			<data element_type="i64" shape="2" offset="18830" size="16" />
			<output>
				<port id="0" precision="I64">
					<dim>2</dim>
				</port>
			</output>
		</layer>
		<layer id="107" name="MVN_581" type="MVN" version="opset6">
			<data eps="9.9999997473787516e-06" normalize_variance="true" eps_mode="INSIDE_SQRT" />
			<input>
				<port id="0" precision="FP32">
					<dim>2</dim>
					<dim>128</dim>
					<dim>144</dim>
					<dim>80</dim>
				</port>
				<port id="1" precision="I64">
					<dim>2</dim>
				</port>
			</input>
			<output>
				<port id="2" precision="FP32" names="/backbone/layer3/layer3.0/norm2/InstanceNormalization_output_0">
					<dim>2</dim>
					<dim>128</dim>
					<dim>144</dim>
					<dim>80</dim>
				</port>
			</output>
		</layer>
		<layer id="108" name="/backbone/layer3/layer3.0/relu_1/Relu" type="ReLU" version="opset1">
			<input>
				<port id="0" precision="FP32">
					<dim>2</dim>
					<dim>128</dim>
					<dim>144</dim>
					<dim>80</dim>
				</port>
			</input>
			<output>
				<port id="1" precision="FP32" names="/backbone/layer3/layer3.0/relu_1/Relu_output_0">
					<dim>2</dim>
					<dim>128</dim>
					<dim>144</dim>
					<dim>80</dim>
				</port>
			</output>
		</layer>
		<layer id="109" name="/backbone/layer3/layer3.0/Add" type="Add" version="opset1">
			<data auto_broadcast="numpy" />
			<input>
				<port id="0" precision="FP32">
					<dim>2</dim>
					<dim>128</dim>
					<dim>144</dim>
					<dim>80</dim>
				</port>
				<port id="1" precision="FP32">
					<dim>2</dim>
					<dim>128</dim>
					<dim>144</dim>
					<dim>80</dim>
				</port>
			</input>
			<output>
				<port id="2" precision="FP32" names="/backbone/layer3/layer3.0/Add_output_0">
					<dim>2</dim>
					<dim>128</dim>
					<dim>144</dim>
					<dim>80</dim>
				</port>
			</output>
		</layer>
		<layer id="110" name="/backbone/layer3/layer3.0/relu_2/Relu" type="ReLU" version="opset1">
			<input>
				<port id="0" precision="FP32">
					<dim>2</dim>
					<dim>128</dim>
					<dim>144</dim>
					<dim>80</dim>
				</port>
			</input>
			<output>
				<port id="1" precision="FP32" names="/backbone/layer3/layer3.0/relu_2/Relu_output_0">
					<dim>2</dim>
					<dim>128</dim>
					<dim>144</dim>
					<dim>80</dim>
				</port>
			</output>
		</layer>
		<layer id="111" name="backbone.layer3.1.conv1.weight_compressed" type="Const" version="opset1">
			<data element_type="f16" shape="128, 128, 3, 3" offset="1475422" size="294912" />
			<output>
				<port id="0" precision="FP16" names="backbone.layer3.1.conv1.weight">
					<dim>128</dim>
					<dim>128</dim>
					<dim>3</dim>
					<dim>3</dim>
				</port>
			</output>
		</layer>
		<layer id="112" name="backbone.layer3.1.conv1.weight" type="Convert" version="opset1">
			<data destination_type="f32" />
			<rt_info>
				<attribute name="decompression" version="0" />
			</rt_info>
			<input>
				<port id="0" precision="FP16">
					<dim>128</dim>
					<dim>128</dim>
					<dim>3</dim>
					<dim>3</dim>
				</port>
			</input>
			<output>
				<port id="1" precision="FP32">
					<dim>128</dim>
					<dim>128</dim>
					<dim>3</dim>
					<dim>3</dim>
				</port>
			</output>
		</layer>
		<layer id="113" name="/backbone/layer3/layer3.1/conv1/Conv" type="Convolution" version="opset1">
			<data strides="1, 1" dilations="1, 1" pads_begin="1, 1" pads_end="1, 1" auto_pad="explicit" />
			<input>
				<port id="0" precision="FP32">
					<dim>2</dim>
					<dim>128</dim>
					<dim>144</dim>
					<dim>80</dim>
				</port>
				<port id="1" precision="FP32">
					<dim>128</dim>
					<dim>128</dim>
					<dim>3</dim>
					<dim>3</dim>
				</port>
			</input>
			<output>
				<port id="2" precision="FP32" names="/backbone/layer3/layer3.1/conv1/Conv_output_0">
					<dim>2</dim>
					<dim>128</dim>
					<dim>144</dim>
					<dim>80</dim>
				</port>
			</output>
		</layer>
		<layer id="114" name="Constant_665" type="Const" version="opset1">
			<data element_type="i64" shape="2" offset="18830" size="16" />
			<output>
				<port id="0" precision="I64">
					<dim>2</dim>
				</port>
			</output>
		</layer>
		<layer id="115" name="MVN_666" type="MVN" version="opset6">
			<data eps="9.9999997473787516e-06" normalize_variance="true" eps_mode="INSIDE_SQRT" />
			<input>
				<port id="0" precision="FP32">
					<dim>2</dim>
					<dim>128</dim>
					<dim>144</dim>
					<dim>80</dim>
				</port>
				<port id="1" precision="I64">
					<dim>2</dim>
				</port>
			</input>
			<output>
				<port id="2" precision="FP32" names="/backbone/layer3/layer3.1/norm1/InstanceNormalization_output_0">
					<dim>2</dim>
					<dim>128</dim>
					<dim>144</dim>
					<dim>80</dim>
				</port>
			</output>
		</layer>
		<layer id="116" name="/backbone/layer3/layer3.1/relu/Relu" type="ReLU" version="opset1">
			<input>
				<port id="0" precision="FP32">
					<dim>2</dim>
					<dim>128</dim>
					<dim>144</dim>
					<dim>80</dim>
				</port>
			</input>
			<output>
				<port id="1" precision="FP32" names="/backbone/layer3/layer3.1/relu/Relu_output_0">
					<dim>2</dim>
					<dim>128</dim>
					<dim>144</dim>
					<dim>80</dim>
				</port>
			</output>
		</layer>
		<layer id="117" name="backbone.layer3.1.conv2.weight_compressed" type="Const" version="opset1">
			<data element_type="f16" shape="128, 128, 3, 3" offset="1770334" size="294912" />
			<output>
				<port id="0" precision="FP16" names="backbone.layer3.1.conv2.weight">
					<dim>128</dim>
					<dim>128</dim>
					<dim>3</dim>
					<dim>3</dim>
				</port>
			</output>
		</layer>
		<layer id="118" name="backbone.layer3.1.conv2.weight" type="Convert" version="opset1">
			<data destination_type="f32" />
			<rt_info>
				<attribute name="decompression" version="0" />
			</rt_info>
			<input>
				<port id="0" precision="FP16">
					<dim>128</dim>
					<dim>128</dim>
					<dim>3</dim>
					<dim>3</dim>
				</port>
			</input>
			<output>
				<port id="1" precision="FP32">
					<dim>128</dim>
					<dim>128</dim>
					<dim>3</dim>
					<dim>3</dim>
				</port>
			</output>
		</layer>
		<layer id="119" name="/backbone/layer3/layer3.1/conv2/Conv" type="Convolution" version="opset1">
			<data strides="1, 1" dilations="1, 1" pads_begin="1, 1" pads_end="1, 1" auto_pad="explicit" />
			<input>
				<port id="0" precision="FP32">
					<dim>2</dim>
					<dim>128</dim>
					<dim>144</dim>
					<dim>80</dim>
				</port>
				<port id="1" precision="FP32">
					<dim>128</dim>
					<dim>128</dim>
					<dim>3</dim>
					<dim>3</dim>
				</port>
			</input>
			<output>
				<port id="2" precision="FP32" names="/backbone/layer3/layer3.1/conv2/Conv_output_0">
					<dim>2</dim>
					<dim>128</dim>
					<dim>144</dim>
					<dim>80</dim>
				</port>
			</output>
		</layer>
		<layer id="120" name="Constant_700" type="Const" version="opset1">
			<data element_type="i64" shape="2" offset="18830" size="16" />
			<output>
				<port id="0" precision="I64">
					<dim>2</dim>
				</port>
			</output>
		</layer>
		<layer id="121" name="MVN_701" type="MVN" version="opset6">
			<data eps="9.9999997473787516e-06" normalize_variance="true" eps_mode="INSIDE_SQRT" />
			<input>
				<port id="0" precision="FP32">
					<dim>2</dim>
					<dim>128</dim>
					<dim>144</dim>
					<dim>80</dim>
				</port>
				<port id="1" precision="I64">
					<dim>2</dim>
				</port>
			</input>
			<output>
				<port id="2" precision="FP32" names="/backbone/layer3/layer3.1/norm2/InstanceNormalization_output_0">
					<dim>2</dim>
					<dim>128</dim>
					<dim>144</dim>
					<dim>80</dim>
				</port>
			</output>
		</layer>
		<layer id="122" name="/backbone/layer3/layer3.1/relu_1/Relu" type="ReLU" version="opset1">
			<input>
				<port id="0" precision="FP32">
					<dim>2</dim>
					<dim>128</dim>
					<dim>144</dim>
					<dim>80</dim>
				</port>
			</input>
			<output>
				<port id="1" precision="FP32" names="/backbone/layer3/layer3.1/relu_1/Relu_output_0">
					<dim>2</dim>
					<dim>128</dim>
					<dim>144</dim>
					<dim>80</dim>
				</port>
			</output>
		</layer>
		<layer id="123" name="/backbone/layer3/layer3.1/Add" type="Add" version="opset1">
			<data auto_broadcast="numpy" />
			<input>
				<port id="0" precision="FP32">
					<dim>2</dim>
					<dim>128</dim>
					<dim>144</dim>
					<dim>80</dim>
				</port>
				<port id="1" precision="FP32">
					<dim>2</dim>
					<dim>128</dim>
					<dim>144</dim>
					<dim>80</dim>
				</port>
			</input>
			<output>
				<port id="2" precision="FP32" names="/backbone/layer3/layer3.1/Add_output_0">
					<dim>2</dim>
					<dim>128</dim>
					<dim>144</dim>
					<dim>80</dim>
				</port>
			</output>
		</layer>
		<layer id="124" name="/backbone/layer3/layer3.1/relu_2/Relu" type="ReLU" version="opset1">
			<input>
				<port id="0" precision="FP32">
					<dim>2</dim>
					<dim>128</dim>
					<dim>144</dim>
					<dim>80</dim>
				</port>
			</input>
			<output>
				<port id="1" precision="FP32" names="/backbone/layer3/layer3.1/relu_2/Relu_output_0">
					<dim>2</dim>
					<dim>128</dim>
					<dim>144</dim>
					<dim>80</dim>
				</port>
			</output>
		</layer>
		<layer id="125" name="backbone.conv2.weight_compressed" type="Const" version="opset1">
			<data element_type="f16" shape="128, 128, 1, 1" offset="2065246" size="32768" />
			<output>
				<port id="0" precision="FP16" names="backbone.conv2.weight">
					<dim>128</dim>
					<dim>128</dim>
					<dim>1</dim>
					<dim>1</dim>
				</port>
			</output>
		</layer>
		<layer id="126" name="backbone.conv2.weight" type="Convert" version="opset1">
			<data destination_type="f32" />
			<rt_info>
				<attribute name="decompression" version="0" />
			</rt_info>
			<input>
				<port id="0" precision="FP16">
					<dim>128</dim>
					<dim>128</dim>
					<dim>1</dim>
					<dim>1</dim>
				</port>
			</input>
			<output>
				<port id="1" precision="FP32">
					<dim>128</dim>
					<dim>128</dim>
					<dim>1</dim>
					<dim>1</dim>
				</port>
			</output>
		</layer>
		<layer id="127" name="/backbone/conv2/Conv/WithoutBiases" type="Convolution" version="opset1">
			<data strides="1, 1" dilations="1, 1" pads_begin="0, 0" pads_end="0, 0" auto_pad="explicit" />
			<input>
				<port id="0" precision="FP32">
					<dim>2</dim>
					<dim>128</dim>
					<dim>144</dim>
					<dim>80</dim>
				</port>
				<port id="1" precision="FP32">
					<dim>128</dim>
					<dim>128</dim>
					<dim>1</dim>
					<dim>1</dim>
				</port>
			</input>
			<output>
				<port id="2" precision="FP32">
					<dim>2</dim>
					<dim>128</dim>
					<dim>144</dim>
					<dim>80</dim>
				</port>
			</output>
		</layer>
		<layer id="128" name="Reshape_745_compressed" type="Const" version="opset1">
			<data element_type="f16" shape="1, 128, 1, 1" offset="2098014" size="256" />
			<output>
				<port id="0" precision="FP16">
					<dim>1</dim>
					<dim>128</dim>
					<dim>1</dim>
					<dim>1</dim>
				</port>
			</output>
		</layer>
		<layer id="129" name="Reshape_745" type="Convert" version="opset1">
			<data destination_type="f32" />
			<rt_info>
				<attribute name="decompression" version="0" />
			</rt_info>
			<input>
				<port id="0" precision="FP16">
					<dim>1</dim>
					<dim>128</dim>
					<dim>1</dim>
					<dim>1</dim>
				</port>
			</input>
			<output>
				<port id="1" precision="FP32">
					<dim>1</dim>
					<dim>128</dim>
					<dim>1</dim>
					<dim>1</dim>
				</port>
			</output>
		</layer>
		<layer id="130" name="/backbone/conv2/Conv" type="Add" version="opset1">
			<data auto_broadcast="numpy" />
			<input>
				<port id="0" precision="FP32">
					<dim>2</dim>
					<dim>128</dim>
					<dim>144</dim>
					<dim>80</dim>
				</port>
				<port id="1" precision="FP32">
					<dim>1</dim>
					<dim>128</dim>
					<dim>1</dim>
					<dim>1</dim>
				</port>
			</input>
			<output>
				<port id="2" precision="FP32" names="/backbone/conv2/Conv_output_0">
					<dim>2</dim>
					<dim>128</dim>
					<dim>144</dim>
					<dim>80</dim>
				</port>
			</output>
		</layer>
		<layer id="131" name="backbone.trident_conv.weight_compressed" type="Const" version="opset1">
			<data element_type="f16" shape="128, 128, 3, 3" offset="2098270" size="294912" />
			<output>
				<port id="0" precision="FP16" names="backbone.trident_conv.weight">
					<dim>128</dim>
					<dim>128</dim>
					<dim>3</dim>
					<dim>3</dim>
				</port>
			</output>
		</layer>
		<layer id="132" name="backbone.trident_conv.weight" type="Convert" version="opset1">
			<data destination_type="f32" />
			<rt_info>
				<attribute name="decompression" version="0" />
			</rt_info>
			<input>
				<port id="0" precision="FP16">
					<dim>128</dim>
					<dim>128</dim>
					<dim>3</dim>
					<dim>3</dim>
				</port>
			</input>
			<output>
				<port id="1" precision="FP32">
					<dim>128</dim>
					<dim>128</dim>
					<dim>3</dim>
					<dim>3</dim>
				</port>
			</output>
		</layer>
		<layer id="133" name="/backbone/trident_conv/Conv" type="Convolution" version="opset1">
			<data strides="1, 1" dilations="1, 1" pads_begin="1, 1" pads_end="1, 1" auto_pad="explicit" />
			<input>
				<port id="0" precision="FP32">
					<dim>2</dim>
					<dim>128</dim>
					<dim>144</dim>
					<dim>80</dim>
				</port>
				<port id="1" precision="FP32">
					<dim>128</dim>
					<dim>128</dim>
					<dim>3</dim>
					<dim>3</dim>
				</port>
			</input>
			<output>
				<port id="2" precision="FP32" names="/backbone/trident_conv/Conv_output_0">
					<dim>2</dim>
					<dim>128</dim>
					<dim>144</dim>
					<dim>80</dim>
				</port>
			</output>
		</layer>
		<layer id="134" name="/Constant_15" type="Const" version="opset1">
			<data element_type="i64" shape="1" offset="2393182" size="8" />
			<rt_info>
				<attribute name="precise" version="0" />
			</rt_info>
			<output>
				<port id="0" precision="I64" names="/Constant_15_output_0">
					<dim>1</dim>
				</port>
			</output>
		</layer>
		<layer id="135" name="ShapeOf_47073" type="ShapeOf" version="opset3">
			<data output_type="i64" />
			<input>
				<port id="0" precision="FP32">
					<dim>1</dim>
					<dim>3</dim>
					<dim>576</dim>
					<dim>320</dim>
				</port>
			</input>
			<output>
				<port id="1" precision="I64">
					<dim>4</dim>
				</port>
			</output>
		</layer>
		<layer id="136" name="Constant_47074" type="Const" version="opset1">
			<data element_type="i64" shape="1" offset="2393182" size="8" />
			<rt_info>
				<attribute name="precise" version="0" />
			</rt_info>
			<output>
				<port id="0" precision="I64">
					<dim>1</dim>
				</port>
			</output>
		</layer>
		<layer id="137" name="Constant_47075" type="Const" version="opset1">
			<data element_type="i64" shape="" offset="2393182" size="8" />
			<rt_info>
				<attribute name="precise" version="0" />
			</rt_info>
			<output>
				<port id="0" precision="I64" />
			</output>
		</layer>
		<layer id="138" name="Gather_47076" type="Gather" version="opset8">
			<data batch_dims="0" />
			<input>
				<port id="0" precision="I64">
					<dim>4</dim>
				</port>
				<port id="1" precision="I64">
					<dim>1</dim>
				</port>
				<port id="2" precision="I64" />
			</input>
			<output>
				<port id="3" precision="I64">
					<dim>1</dim>
				</port>
			</output>
		</layer>
		<layer id="139" name="ShapeOf_47077" type="ShapeOf" version="opset3">
			<data output_type="i64" />
			<input>
				<port id="0" precision="FP32">
					<dim>1</dim>
					<dim>3</dim>
					<dim>576</dim>
					<dim>320</dim>
				</port>
			</input>
			<output>
				<port id="1" precision="I64">
					<dim>4</dim>
				</port>
			</output>
		</layer>
		<layer id="140" name="Constant_47078" type="Const" version="opset1">
			<data element_type="i64" shape="1" offset="2393182" size="8" />
			<rt_info>
				<attribute name="precise" version="0" />
			</rt_info>
			<output>
				<port id="0" precision="I64">
					<dim>1</dim>
				</port>
			</output>
		</layer>
		<layer id="141" name="Constant_47079" type="Const" version="opset1">
			<data element_type="i64" shape="" offset="2393182" size="8" />
			<rt_info>
				<attribute name="precise" version="0" />
			</rt_info>
			<output>
				<port id="0" precision="I64" />
			</output>
		</layer>
		<layer id="142" name="Gather_47080" type="Gather" version="opset8">
			<data batch_dims="0" />
			<input>
				<port id="0" precision="I64">
					<dim>4</dim>
				</port>
				<port id="1" precision="I64">
					<dim>1</dim>
				</port>
				<port id="2" precision="I64" />
			</input>
			<output>
				<port id="3" precision="I64">
					<dim>1</dim>
				</port>
			</output>
		</layer>
		<layer id="143" name="Add_47081" type="Add" version="opset1">
			<data auto_broadcast="numpy" />
			<input>
				<port id="0" precision="I64">
					<dim>1</dim>
				</port>
				<port id="1" precision="I64">
					<dim>1</dim>
				</port>
			</input>
			<output>
				<port id="2" precision="I64" names="/Gather_1_output_0,/Gather_output_0">
					<dim>1</dim>
				</port>
			</output>
		</layer>
		<layer id="144" name="/Constant_10" type="Const" version="opset1">
			<data element_type="i64" shape="1" offset="2393190" size="8" />
			<rt_info>
				<attribute name="precise" version="0" />
			</rt_info>
			<output>
				<port id="0" precision="I64" names="/Constant_10_output_0">
					<dim>1</dim>
				</port>
			</output>
		</layer>
		<layer id="145" name="/Add" type="Add" version="opset1">
			<data auto_broadcast="numpy" />
			<input>
				<port id="0" precision="I64">
					<dim>1</dim>
				</port>
				<port id="1" precision="I64">
					<dim>1</dim>
				</port>
			</input>
			<output>
				<port id="2" precision="I64" names="/Add_1_output_0,/Add_output_0">
					<dim>1</dim>
				</port>
			</output>
		</layer>
		<layer id="146" name="/Constant_11" type="Const" version="opset1">
			<data element_type="i64" shape="1" offset="2393198" size="8" />
			<rt_info>
				<attribute name="precise" version="0" />
			</rt_info>
			<output>
				<port id="0" precision="I64" names="/Constant_11_output_0">
					<dim>1</dim>
				</port>
			</output>
		</layer>
		<layer id="147" name="/Div_4" type="Divide" version="opset1">
			<data auto_broadcast="numpy" m_pythondiv="true" />
			<input>
				<port id="0" precision="I64">
					<dim>1</dim>
				</port>
				<port id="1" precision="I64">
					<dim>1</dim>
				</port>
			</input>
			<output>
				<port id="2" precision="I64" names="/Div_4_output_0,/Div_5_output_0,/Mul_2_output_0,/Mul_output_0">
					<dim>1</dim>
				</port>
			</output>
		</layer>
		<layer id="148" name="Broadcast_875" type="Const" version="opset1">
			<data element_type="i64" shape="1" offset="2393190" size="8" />
			<rt_info>
				<attribute name="precise" version="0" />
			</rt_info>
			<output>
				<port id="0" precision="I64">
					<dim>1</dim>
				</port>
			</output>
		</layer>
		<layer id="149" name="/Slice_2" type="StridedSlice" version="opset1">
			<data begin_mask="0" end_mask="0" new_axis_mask="" shrink_axis_mask="" ellipsis_mask="" />
			<input>
				<port id="0" precision="FP32">
					<dim>2</dim>
					<dim>128</dim>
					<dim>144</dim>
					<dim>80</dim>
				</port>
				<port id="1" precision="I64">
					<dim>1</dim>
				</port>
				<port id="2" precision="I64">
					<dim>1</dim>
				</port>
				<port id="3" precision="I64">
					<dim>1</dim>
				</port>
			</input>
			<output>
				<port id="4" precision="FP32" names="/Slice_2_output_0">
					<dim>1</dim>
					<dim>128</dim>
					<dim>144</dim>
					<dim>80</dim>
				</port>
			</output>
		</layer>
		<layer id="150" name="/Constant_13" type="Const" version="opset1">
			<data element_type="i64" shape="1" offset="2393198" size="8" />
			<rt_info>
				<attribute name="precise" version="0" />
			</rt_info>
			<output>
				<port id="0" precision="I64" names="/Constant_13_output_0">
					<dim>1</dim>
				</port>
			</output>
		</layer>
		<layer id="151" name="/Mul_1" type="Multiply" version="opset1">
			<data auto_broadcast="numpy" />
			<input>
				<port id="0" precision="I64">
					<dim>1</dim>
				</port>
				<port id="1" precision="I64">
					<dim>1</dim>
				</port>
			</input>
			<output>
				<port id="2" precision="I64" names="/Mul_1_output_0,/Mul_3_output_0">
					<dim>1</dim>
				</port>
			</output>
		</layer>
		<layer id="152" name="Broadcast_925" type="Const" version="opset1">
			<data element_type="i64" shape="1" offset="2393190" size="8" />
			<rt_info>
				<attribute name="precise" version="0" />
			</rt_info>
			<output>
				<port id="0" precision="I64">
					<dim>1</dim>
				</port>
			</output>
		</layer>
		<layer id="153" name="/Slice_3" type="StridedSlice" version="opset1">
			<data begin_mask="0" end_mask="0" new_axis_mask="" shrink_axis_mask="" ellipsis_mask="" />
			<input>
				<port id="0" precision="FP32">
					<dim>2</dim>
					<dim>128</dim>
					<dim>144</dim>
					<dim>80</dim>
				</port>
				<port id="1" precision="I64">
					<dim>1</dim>
				</port>
				<port id="2" precision="I64">
					<dim>1</dim>
				</port>
				<port id="3" precision="I64">
					<dim>1</dim>
				</port>
			</input>
			<output>
				<port id="4" precision="FP32" names="/Slice_3_output_0">
					<dim>1</dim>
					<dim>128</dim>
					<dim>144</dim>
					<dim>80</dim>
				</port>
			</output>
		</layer>
		<layer id="154" name="/Concat_9" type="Concat" version="opset1">
			<data axis="0" />
			<input>
				<port id="0" precision="FP32">
					<dim>1</dim>
					<dim>128</dim>
					<dim>144</dim>
					<dim>80</dim>
				</port>
				<port id="1" precision="FP32">
					<dim>1</dim>
					<dim>128</dim>
					<dim>144</dim>
					<dim>80</dim>
				</port>
			</input>
			<output>
				<port id="2" precision="FP32" names="/Concat_9_output_0">
					<dim>2</dim>
					<dim>128</dim>
					<dim>144</dim>
					<dim>80</dim>
				</port>
			</output>
		</layer>
		<layer id="155" name="/Constant_112" type="Const" version="opset1">
			<data element_type="i64" shape="6" offset="2393206" size="48" />
			<rt_info>
				<attribute name="precise" version="0" />
			</rt_info>
			<output>
				<port id="0" precision="I64" names="/Constant_112_output_0">
					<dim>6</dim>
				</port>
			</output>
		</layer>
		<layer id="156" name="/Reshape_16" type="Reshape" version="opset1">
			<data special_zero="true" />
			<input>
				<port id="0" precision="FP32">
					<dim>2</dim>
					<dim>128</dim>
					<dim>144</dim>
					<dim>80</dim>
				</port>
				<port id="1" precision="I64">
					<dim>6</dim>
				</port>
			</input>
			<output>
				<port id="2" precision="FP32" names="/Reshape_16_output_0">
					<dim>2</dim>
					<dim>128</dim>
					<dim>8</dim>
					<dim>18</dim>
					<dim>8</dim>
					<dim>10</dim>
				</port>
			</output>
		</layer>
		<layer id="157" name="Constant_5175" type="Const" version="opset1">
			<data element_type="i64" shape="6" offset="2393254" size="48" />
			<output>
				<port id="0" precision="I64">
					<dim>6</dim>
				</port>
			</output>
		</layer>
		<layer id="158" name="/Transpose_9" type="Transpose" version="opset1">
			<input>
				<port id="0" precision="FP32">
					<dim>2</dim>
					<dim>128</dim>
					<dim>8</dim>
					<dim>18</dim>
					<dim>8</dim>
					<dim>10</dim>
				</port>
				<port id="1" precision="I64">
					<dim>6</dim>
				</port>
			</input>
			<output>
				<port id="2" precision="FP32" names="/Transpose_9_output_0">
					<dim>2</dim>
					<dim>8</dim>
					<dim>8</dim>
					<dim>128</dim>
					<dim>18</dim>
					<dim>10</dim>
				</port>
			</output>
		</layer>
		<layer id="159" name="/Constant_113" type="Const" version="opset1">
			<data element_type="i64" shape="4" offset="2393302" size="32" />
			<rt_info>
				<attribute name="precise" version="0" />
			</rt_info>
			<output>
				<port id="0" precision="I64" names="/Constant_113_output_0">
					<dim>4</dim>
				</port>
			</output>
		</layer>
		<layer id="160" name="/Reshape_17" type="Reshape" version="opset1">
			<data special_zero="true" />
			<input>
				<port id="0" precision="FP32">
					<dim>2</dim>
					<dim>8</dim>
					<dim>8</dim>
					<dim>128</dim>
					<dim>18</dim>
					<dim>10</dim>
				</port>
				<port id="1" precision="I64">
					<dim>4</dim>
				</port>
			</input>
			<output>
				<port id="2" precision="FP32" names="/Reshape_17_output_0">
					<dim>128</dim>
					<dim>128</dim>
					<dim>18</dim>
					<dim>10</dim>
				</port>
			</output>
		</layer>
		<layer id="161" name="/Transpose_11_compressed" type="Const" version="opset1">
			<data element_type="f16" shape="128, 128, 18, 10" offset="2393334" size="5898240" />
			<output>
				<port id="0" precision="FP16" names="/Transpose_11_output_0">
					<dim>128</dim>
					<dim>128</dim>
					<dim>18</dim>
					<dim>10</dim>
				</port>
			</output>
		</layer>
		<layer id="162" name="/Transpose_11" type="Convert" version="opset1">
			<data destination_type="f32" />
			<rt_info>
				<attribute name="decompression" version="0" />
			</rt_info>
			<input>
				<port id="0" precision="FP16">
					<dim>128</dim>
					<dim>128</dim>
					<dim>18</dim>
					<dim>10</dim>
				</port>
			</input>
			<output>
				<port id="1" precision="FP32">
					<dim>128</dim>
					<dim>128</dim>
					<dim>18</dim>
					<dim>10</dim>
				</port>
			</output>
		</layer>
		<layer id="163" name="/Add_9" type="Add" version="opset1">
			<data auto_broadcast="numpy" />
			<input>
				<port id="0" precision="FP32">
					<dim>128</dim>
					<dim>128</dim>
					<dim>18</dim>
					<dim>10</dim>
				</port>
				<port id="1" precision="FP32">
					<dim>128</dim>
					<dim>128</dim>
					<dim>18</dim>
					<dim>10</dim>
				</port>
			</input>
			<output>
				<port id="2" precision="FP32" names="/Add_9_output_0">
					<dim>128</dim>
					<dim>128</dim>
					<dim>18</dim>
					<dim>10</dim>
				</port>
			</output>
		</layer>
		<layer id="164" name="/Constant_164" type="Const" version="opset1">
			<data element_type="i64" shape="6" offset="8291574" size="48" />
			<rt_info>
				<attribute name="precise" version="0" />
			</rt_info>
			<output>
				<port id="0" precision="I64" names="/Constant_164_output_0">
					<dim>6</dim>
				</port>
			</output>
		</layer>
		<layer id="165" name="/Reshape_22" type="Reshape" version="opset1">
			<data special_zero="true" />
			<input>
				<port id="0" precision="FP32">
					<dim>128</dim>
					<dim>128</dim>
					<dim>18</dim>
					<dim>10</dim>
				</port>
				<port id="1" precision="I64">
					<dim>6</dim>
				</port>
			</input>
			<output>
				<port id="2" precision="FP32" names="/Reshape_22_output_0">
					<dim>2</dim>
					<dim>8</dim>
					<dim>8</dim>
					<dim>128</dim>
					<dim>18</dim>
					<dim>10</dim>
				</port>
			</output>
		</layer>
		<layer id="166" name="Constant_5296" type="Const" version="opset1">
			<data element_type="i64" shape="6" offset="8291622" size="48" />
			<output>
				<port id="0" precision="I64">
					<dim>6</dim>
				</port>
			</output>
		</layer>
		<layer id="167" name="/Transpose_12" type="Transpose" version="opset1">
			<input>
				<port id="0" precision="FP32">
					<dim>2</dim>
					<dim>8</dim>
					<dim>8</dim>
					<dim>128</dim>
					<dim>18</dim>
					<dim>10</dim>
				</port>
				<port id="1" precision="I64">
					<dim>6</dim>
				</port>
			</input>
			<output>
				<port id="2" precision="FP32" names="/Transpose_12_output_0">
					<dim>2</dim>
					<dim>128</dim>
					<dim>8</dim>
					<dim>18</dim>
					<dim>8</dim>
					<dim>10</dim>
				</port>
			</output>
		</layer>
		<layer id="168" name="Constant_47298" type="Const" version="opset1">
			<data element_type="i64" shape="3" offset="8291670" size="24" />
			<rt_info>
				<attribute name="precise" version="0" />
			</rt_info>
			<output>
				<port id="0" precision="I64">
					<dim>3</dim>
				</port>
			</output>
		</layer>
		<layer id="169" name="/transformer_1/Reshape" type="Reshape" version="opset1">
			<data special_zero="false" />
			<input>
				<port id="0" precision="FP32">
					<dim>2</dim>
					<dim>128</dim>
					<dim>8</dim>
					<dim>18</dim>
					<dim>8</dim>
					<dim>10</dim>
				</port>
				<port id="1" precision="I64">
					<dim>3</dim>
				</port>
			</input>
			<output>
				<port id="2" precision="FP32" names="/transformer_1/Reshape_output_0">
					<dim>2</dim>
					<dim>128</dim>
					<dim>11520</dim>
				</port>
			</output>
		</layer>
		<layer id="170" name="Constant_5324" type="Const" version="opset1">
			<data element_type="i64" shape="3" offset="8291694" size="24" />
			<output>
				<port id="0" precision="I64">
					<dim>3</dim>
				</port>
			</output>
		</layer>
		<layer id="171" name="/transformer_1/Transpose" type="Transpose" version="opset1">
			<input>
				<port id="0" precision="FP32">
					<dim>2</dim>
					<dim>128</dim>
					<dim>11520</dim>
				</port>
				<port id="1" precision="I64">
					<dim>3</dim>
				</port>
			</input>
			<output>
				<port id="2" precision="FP32" names="/transformer_1/Transpose_output_0">
					<dim>2</dim>
					<dim>11520</dim>
					<dim>128</dim>
				</port>
			</output>
		</layer>
		<layer id="172" name="/Concat_10" type="Concat" version="opset1">
			<data axis="0" />
			<input>
				<port id="0" precision="FP32">
					<dim>1</dim>
					<dim>128</dim>
					<dim>144</dim>
					<dim>80</dim>
				</port>
				<port id="1" precision="FP32">
					<dim>1</dim>
					<dim>128</dim>
					<dim>144</dim>
					<dim>80</dim>
				</port>
			</input>
			<output>
				<port id="2" precision="FP32" names="/Concat_10_output_0">
					<dim>2</dim>
					<dim>128</dim>
					<dim>144</dim>
					<dim>80</dim>
				</port>
			</output>
		</layer>
		<layer id="173" name="/Cast_3_compressed" type="Const" version="opset1">
			<data element_type="f16" shape="2, 2, 144, 80" offset="8291718" size="92160" />
			<output>
				<port id="0" precision="FP16" names="/Cast_3_output_0">
					<dim>2</dim>
					<dim>2</dim>
					<dim>144</dim>
					<dim>80</dim>
				</port>
			</output>
		</layer>
		<layer id="174" name="/Cast_3" type="Convert" version="opset1">
			<data destination_type="f32" />
			<rt_info>
				<attribute name="decompression" version="0" />
			</rt_info>
			<input>
				<port id="0" precision="FP16">
					<dim>2</dim>
					<dim>2</dim>
					<dim>144</dim>
					<dim>80</dim>
				</port>
			</input>
			<output>
				<port id="1" precision="FP32">
					<dim>2</dim>
					<dim>2</dim>
					<dim>144</dim>
					<dim>80</dim>
				</port>
			</output>
		</layer>
		<layer id="175" name="Constant_43366_compressed" type="Const" version="opset1">
			<data element_type="f16" shape="1, 1, 128" offset="8383878" size="256" />
			<output>
				<port id="0" precision="FP16">
					<dim>1</dim>
					<dim>1</dim>
					<dim>128</dim>
				</port>
			</output>
		</layer>
		<layer id="176" name="Constant_43366" type="Convert" version="opset1">
			<data destination_type="f32" />
			<rt_info>
				<attribute name="decompression" version="0" />
			</rt_info>
			<input>
				<port id="0" precision="FP16">
					<dim>1</dim>
					<dim>1</dim>
					<dim>128</dim>
				</port>
			</input>
			<output>
				<port id="1" precision="FP32">
					<dim>1</dim>
					<dim>1</dim>
					<dim>128</dim>
				</port>
			</output>
		</layer>
		<layer id="177" name="/backbone/trident_conv/Conv_1" type="Convolution" version="opset1">
			<data strides="2, 2" dilations="1, 1" pads_begin="1, 1" pads_end="1, 1" auto_pad="explicit" />
			<input>
				<port id="0" precision="FP32">
					<dim>2</dim>
					<dim>128</dim>
					<dim>144</dim>
					<dim>80</dim>
				</port>
				<port id="1" precision="FP32">
					<dim>128</dim>
					<dim>128</dim>
					<dim>3</dim>
					<dim>3</dim>
				</port>
			</input>
			<output>
				<port id="2" precision="FP32" names="/backbone/trident_conv/Conv_1_output_0">
					<dim>2</dim>
					<dim>128</dim>
					<dim>72</dim>
					<dim>40</dim>
				</port>
			</output>
		</layer>
		<layer id="178" name="/Constant_9" type="Const" version="opset1">
			<data element_type="i64" shape="1" offset="2393182" size="8" />
			<rt_info>
				<attribute name="precise" version="0" />
			</rt_info>
			<output>
				<port id="0" precision="I64" names="/Constant_9_output_0">
					<dim>1</dim>
				</port>
			</output>
		</layer>
		<layer id="179" name="Broadcast_766" type="Const" version="opset1">
			<data element_type="i64" shape="1" offset="2393190" size="8" />
			<rt_info>
				<attribute name="precise" version="0" />
			</rt_info>
			<output>
				<port id="0" precision="I64">
					<dim>1</dim>
				</port>
			</output>
		</layer>
		<layer id="180" name="/Slice" type="StridedSlice" version="opset1">
			<data begin_mask="0" end_mask="0" new_axis_mask="" shrink_axis_mask="" ellipsis_mask="" />
			<input>
				<port id="0" precision="FP32">
					<dim>2</dim>
					<dim>128</dim>
					<dim>72</dim>
					<dim>40</dim>
				</port>
				<port id="1" precision="I64">
					<dim>1</dim>
				</port>
				<port id="2" precision="I64">
					<dim>1</dim>
				</port>
				<port id="3" precision="I64">
					<dim>1</dim>
				</port>
			</input>
			<output>
				<port id="4" precision="FP32" names="/Slice_output_0">
					<dim>1</dim>
					<dim>128</dim>
					<dim>72</dim>
					<dim>40</dim>
				</port>
			</output>
		</layer>
		<layer id="181" name="/Constant_20" type="Const" version="opset1">
			<data element_type="i64" shape="6" offset="8384134" size="48" />
			<rt_info>
				<attribute name="precise" version="0" />
			</rt_info>
			<output>
				<port id="0" precision="I64" names="/Constant_20_output_0">
					<dim>6</dim>
				</port>
			</output>
		</layer>
		<layer id="182" name="/Reshape" type="Reshape" version="opset1">
			<data special_zero="true" />
			<input>
				<port id="0" precision="FP32">
					<dim>1</dim>
					<dim>128</dim>
					<dim>72</dim>
					<dim>40</dim>
				</port>
				<port id="1" precision="I64">
					<dim>6</dim>
				</port>
			</input>
			<output>
				<port id="2" precision="FP32" names="/Reshape_output_0">
					<dim>1</dim>
					<dim>128</dim>
					<dim>2</dim>
					<dim>36</dim>
					<dim>2</dim>
					<dim>20</dim>
				</port>
			</output>
		</layer>
		<layer id="183" name="Constant_973" type="Const" version="opset1">
			<data element_type="i64" shape="6" offset="2393254" size="48" />
			<output>
				<port id="0" precision="I64">
					<dim>6</dim>
				</port>
			</output>
		</layer>
		<layer id="184" name="/Transpose" type="Transpose" version="opset1">
			<input>
				<port id="0" precision="FP32">
					<dim>1</dim>
					<dim>128</dim>
					<dim>2</dim>
					<dim>36</dim>
					<dim>2</dim>
					<dim>20</dim>
				</port>
				<port id="1" precision="I64">
					<dim>6</dim>
				</port>
			</input>
			<output>
				<port id="2" precision="FP32" names="/Transpose_output_0">
					<dim>1</dim>
					<dim>2</dim>
					<dim>2</dim>
					<dim>128</dim>
					<dim>36</dim>
					<dim>20</dim>
				</port>
			</output>
		</layer>
		<layer id="185" name="/Constant_21" type="Const" version="opset1">
			<data element_type="i64" shape="4" offset="8384182" size="32" />
			<rt_info>
				<attribute name="precise" version="0" />
			</rt_info>
			<output>
				<port id="0" precision="I64" names="/Constant_21_output_0">
					<dim>4</dim>
				</port>
			</output>
		</layer>
		<layer id="186" name="/Reshape_1" type="Reshape" version="opset1">
			<data special_zero="true" />
			<input>
				<port id="0" precision="FP32">
					<dim>1</dim>
					<dim>2</dim>
					<dim>2</dim>
					<dim>128</dim>
					<dim>36</dim>
					<dim>20</dim>
				</port>
				<port id="1" precision="I64">
					<dim>4</dim>
				</port>
			</input>
			<output>
				<port id="2" precision="FP32" names="/Reshape_1_output_0">
					<dim>4</dim>
					<dim>128</dim>
					<dim>36</dim>
					<dim>20</dim>
				</port>
			</output>
		</layer>
		<layer id="187" name="/Transpose_2_compressed" type="Const" version="opset1">
			<data element_type="f16" shape="4, 128, 36, 20" offset="8384214" size="737280" />
			<output>
				<port id="0" precision="FP16" names="/Transpose_2_output_0">
					<dim>4</dim>
					<dim>128</dim>
					<dim>36</dim>
					<dim>20</dim>
				</port>
			</output>
		</layer>
		<layer id="188" name="/Transpose_2" type="Convert" version="opset1">
			<data destination_type="f32" />
			<rt_info>
				<attribute name="decompression" version="0" />
			</rt_info>
			<input>
				<port id="0" precision="FP16">
					<dim>4</dim>
					<dim>128</dim>
					<dim>36</dim>
					<dim>20</dim>
				</port>
			</input>
			<output>
				<port id="1" precision="FP32">
					<dim>4</dim>
					<dim>128</dim>
					<dim>36</dim>
					<dim>20</dim>
				</port>
			</output>
		</layer>
		<layer id="189" name="/Add_4" type="Add" version="opset1">
			<data auto_broadcast="numpy" />
			<input>
				<port id="0" precision="FP32">
					<dim>4</dim>
					<dim>128</dim>
					<dim>36</dim>
					<dim>20</dim>
				</port>
				<port id="1" precision="FP32">
					<dim>4</dim>
					<dim>128</dim>
					<dim>36</dim>
					<dim>20</dim>
				</port>
			</input>
			<output>
				<port id="2" precision="FP32" names="/Add_4_output_0">
					<dim>4</dim>
					<dim>128</dim>
					<dim>36</dim>
					<dim>20</dim>
				</port>
			</output>
		</layer>
		<layer id="190" name="/Constant_72" type="Const" version="opset1">
			<data element_type="i64" shape="6" offset="9121494" size="48" />
			<rt_info>
				<attribute name="precise" version="0" />
			</rt_info>
			<output>
				<port id="0" precision="I64" names="/Constant_72_output_0">
					<dim>6</dim>
				</port>
			</output>
		</layer>
		<layer id="191" name="/Reshape_6" type="Reshape" version="opset1">
			<data special_zero="true" />
			<input>
				<port id="0" precision="FP32">
					<dim>4</dim>
					<dim>128</dim>
					<dim>36</dim>
					<dim>20</dim>
				</port>
				<port id="1" precision="I64">
					<dim>6</dim>
				</port>
			</input>
			<output>
				<port id="2" precision="FP32" names="/Reshape_6_output_0">
					<dim>1</dim>
					<dim>2</dim>
					<dim>2</dim>
					<dim>128</dim>
					<dim>36</dim>
					<dim>20</dim>
				</port>
			</output>
		</layer>
		<layer id="192" name="Constant_1094" type="Const" version="opset1">
			<data element_type="i64" shape="6" offset="8291622" size="48" />
			<output>
				<port id="0" precision="I64">
					<dim>6</dim>
				</port>
			</output>
		</layer>
		<layer id="193" name="/Transpose_3" type="Transpose" version="opset1">
			<input>
				<port id="0" precision="FP32">
					<dim>1</dim>
					<dim>2</dim>
					<dim>2</dim>
					<dim>128</dim>
					<dim>36</dim>
					<dim>20</dim>
				</port>
				<port id="1" precision="I64">
					<dim>6</dim>
				</port>
			</input>
			<output>
				<port id="2" precision="FP32" names="/Transpose_3_output_0">
					<dim>1</dim>
					<dim>128</dim>
					<dim>2</dim>
					<dim>36</dim>
					<dim>2</dim>
					<dim>20</dim>
				</port>
			</output>
		</layer>
		<layer id="194" name="Constant_47300" type="Const" version="opset1">
			<data element_type="i64" shape="3" offset="9121542" size="24" />
			<rt_info>
				<attribute name="precise" version="0" />
			</rt_info>
			<output>
				<port id="0" precision="I64">
					<dim>3</dim>
				</port>
			</output>
		</layer>
		<layer id="195" name="/transformer/Reshape" type="Reshape" version="opset1">
			<data special_zero="false" />
			<input>
				<port id="0" precision="FP32">
					<dim>1</dim>
					<dim>128</dim>
					<dim>2</dim>
					<dim>36</dim>
					<dim>2</dim>
					<dim>20</dim>
				</port>
				<port id="1" precision="I64">
					<dim>3</dim>
				</port>
			</input>
			<output>
				<port id="2" precision="FP32" names="/transformer/Reshape_output_0">
					<dim>1</dim>
					<dim>128</dim>
					<dim>2880</dim>
				</port>
			</output>
		</layer>
		<layer id="196" name="Constant_1122" type="Const" version="opset1">
			<data element_type="i64" shape="3" offset="8291694" size="24" />
			<output>
				<port id="0" precision="I64">
					<dim>3</dim>
				</port>
			</output>
		</layer>
		<layer id="197" name="/transformer/Transpose" type="Transpose" version="opset1">
			<input>
				<port id="0" precision="FP32">
					<dim>1</dim>
					<dim>128</dim>
					<dim>2880</dim>
				</port>
				<port id="1" precision="I64">
					<dim>3</dim>
				</port>
			</input>
			<output>
				<port id="2" precision="FP32" names="/transformer/Transpose_output_0">
					<dim>1</dim>
					<dim>2880</dim>
					<dim>128</dim>
				</port>
			</output>
		</layer>
		<layer id="198" name="Broadcast_816" type="Const" version="opset1">
			<data element_type="i64" shape="1" offset="2393190" size="8" />
			<rt_info>
				<attribute name="precise" version="0" />
			</rt_info>
			<output>
				<port id="0" precision="I64">
					<dim>1</dim>
				</port>
			</output>
		</layer>
		<layer id="199" name="/Slice_1" type="StridedSlice" version="opset1">
			<data begin_mask="0" end_mask="0" new_axis_mask="" shrink_axis_mask="" ellipsis_mask="" />
			<input>
				<port id="0" precision="FP32">
					<dim>2</dim>
					<dim>128</dim>
					<dim>72</dim>
					<dim>40</dim>
				</port>
				<port id="1" precision="I64">
					<dim>1</dim>
				</port>
				<port id="2" precision="I64">
					<dim>1</dim>
				</port>
				<port id="3" precision="I64">
					<dim>1</dim>
				</port>
			</input>
			<output>
				<port id="4" precision="FP32" names="/Slice_1_output_0">
					<dim>1</dim>
					<dim>128</dim>
					<dim>72</dim>
					<dim>40</dim>
				</port>
			</output>
		</layer>
		<layer id="200" name="/Constant_22" type="Const" version="opset1">
			<data element_type="i64" shape="6" offset="8384134" size="48" />
			<rt_info>
				<attribute name="precise" version="0" />
			</rt_info>
			<output>
				<port id="0" precision="I64" names="/Constant_22_output_0">
					<dim>6</dim>
				</port>
			</output>
		</layer>
		<layer id="201" name="/Reshape_2" type="Reshape" version="opset1">
			<data special_zero="true" />
			<input>
				<port id="0" precision="FP32">
					<dim>1</dim>
					<dim>128</dim>
					<dim>72</dim>
					<dim>40</dim>
				</port>
				<port id="1" precision="I64">
					<dim>6</dim>
				</port>
			</input>
			<output>
				<port id="2" precision="FP32" names="/Reshape_2_output_0">
					<dim>1</dim>
					<dim>128</dim>
					<dim>2</dim>
					<dim>36</dim>
					<dim>2</dim>
					<dim>20</dim>
				</port>
			</output>
		</layer>
		<layer id="202" name="Constant_979" type="Const" version="opset1">
			<data element_type="i64" shape="6" offset="2393254" size="48" />
			<output>
				<port id="0" precision="I64">
					<dim>6</dim>
				</port>
			</output>
		</layer>
		<layer id="203" name="/Transpose_1" type="Transpose" version="opset1">
			<input>
				<port id="0" precision="FP32">
					<dim>1</dim>
					<dim>128</dim>
					<dim>2</dim>
					<dim>36</dim>
					<dim>2</dim>
					<dim>20</dim>
				</port>
				<port id="1" precision="I64">
					<dim>6</dim>
				</port>
			</input>
			<output>
				<port id="2" precision="FP32" names="/Transpose_1_output_0">
					<dim>1</dim>
					<dim>2</dim>
					<dim>2</dim>
					<dim>128</dim>
					<dim>36</dim>
					<dim>20</dim>
				</port>
			</output>
		</layer>
		<layer id="204" name="/Constant_23" type="Const" version="opset1">
			<data element_type="i64" shape="4" offset="8384182" size="32" />
			<rt_info>
				<attribute name="precise" version="0" />
			</rt_info>
			<output>
				<port id="0" precision="I64" names="/Constant_23_output_0">
					<dim>4</dim>
				</port>
			</output>
		</layer>
		<layer id="205" name="/Reshape_3" type="Reshape" version="opset1">
			<data special_zero="true" />
			<input>
				<port id="0" precision="FP32">
					<dim>1</dim>
					<dim>2</dim>
					<dim>2</dim>
					<dim>128</dim>
					<dim>36</dim>
					<dim>20</dim>
				</port>
				<port id="1" precision="I64">
					<dim>4</dim>
				</port>
			</input>
			<output>
				<port id="2" precision="FP32" names="/Reshape_3_output_0">
					<dim>4</dim>
					<dim>128</dim>
					<dim>36</dim>
					<dim>20</dim>
				</port>
			</output>
		</layer>
		<layer id="206" name="/Add_5" type="Add" version="opset1">
			<data auto_broadcast="numpy" />
			<input>
				<port id="0" precision="FP32">
					<dim>4</dim>
					<dim>128</dim>
					<dim>36</dim>
					<dim>20</dim>
				</port>
				<port id="1" precision="FP32">
					<dim>4</dim>
					<dim>128</dim>
					<dim>36</dim>
					<dim>20</dim>
				</port>
			</input>
			<output>
				<port id="2" precision="FP32" names="/Add_5_output_0">
					<dim>4</dim>
					<dim>128</dim>
					<dim>36</dim>
					<dim>20</dim>
				</port>
			</output>
		</layer>
		<layer id="207" name="/Constant_74" type="Const" version="opset1">
			<data element_type="i64" shape="6" offset="9121494" size="48" />
			<rt_info>
				<attribute name="precise" version="0" />
			</rt_info>
			<output>
				<port id="0" precision="I64" names="/Constant_74_output_0">
					<dim>6</dim>
				</port>
			</output>
		</layer>
		<layer id="208" name="/Reshape_8" type="Reshape" version="opset1">
			<data special_zero="true" />
			<input>
				<port id="0" precision="FP32">
					<dim>4</dim>
					<dim>128</dim>
					<dim>36</dim>
					<dim>20</dim>
				</port>
				<port id="1" precision="I64">
					<dim>6</dim>
				</port>
			</input>
			<output>
				<port id="2" precision="FP32" names="/Reshape_8_output_0">
					<dim>1</dim>
					<dim>2</dim>
					<dim>2</dim>
					<dim>128</dim>
					<dim>36</dim>
					<dim>20</dim>
				</port>
			</output>
		</layer>
		<layer id="209" name="Constant_1100" type="Const" version="opset1">
			<data element_type="i64" shape="6" offset="8291622" size="48" />
			<output>
				<port id="0" precision="I64">
					<dim>6</dim>
				</port>
			</output>
		</layer>
		<layer id="210" name="/Transpose_4" type="Transpose" version="opset1">
			<input>
				<port id="0" precision="FP32">
					<dim>1</dim>
					<dim>2</dim>
					<dim>2</dim>
					<dim>128</dim>
					<dim>36</dim>
					<dim>20</dim>
				</port>
				<port id="1" precision="I64">
					<dim>6</dim>
				</port>
			</input>
			<output>
				<port id="2" precision="FP32" names="/Transpose_4_output_0">
					<dim>1</dim>
					<dim>128</dim>
					<dim>2</dim>
					<dim>36</dim>
					<dim>2</dim>
					<dim>20</dim>
				</port>
			</output>
		</layer>
		<layer id="211" name="Constant_47302" type="Const" version="opset1">
			<data element_type="i64" shape="3" offset="9121542" size="24" />
			<rt_info>
				<attribute name="precise" version="0" />
			</rt_info>
			<output>
				<port id="0" precision="I64">
					<dim>3</dim>
				</port>
			</output>
		</layer>
		<layer id="212" name="/transformer/Reshape_1" type="Reshape" version="opset1">
			<data special_zero="false" />
			<input>
				<port id="0" precision="FP32">
					<dim>1</dim>
					<dim>128</dim>
					<dim>2</dim>
					<dim>36</dim>
					<dim>2</dim>
					<dim>20</dim>
				</port>
				<port id="1" precision="I64">
					<dim>3</dim>
				</port>
			</input>
			<output>
				<port id="2" precision="FP32" names="/transformer/Reshape_1_output_0">
					<dim>1</dim>
					<dim>128</dim>
					<dim>2880</dim>
				</port>
			</output>
		</layer>
		<layer id="213" name="Constant_1142" type="Const" version="opset1">
			<data element_type="i64" shape="3" offset="8291694" size="24" />
			<output>
				<port id="0" precision="I64">
					<dim>3</dim>
				</port>
			</output>
		</layer>
		<layer id="214" name="/transformer/Transpose_1" type="Transpose" version="opset1">
			<input>
				<port id="0" precision="FP32">
					<dim>1</dim>
					<dim>128</dim>
					<dim>2880</dim>
				</port>
				<port id="1" precision="I64">
					<dim>3</dim>
				</port>
			</input>
			<output>
				<port id="2" precision="FP32" names="/transformer/Transpose_1_output_0">
					<dim>1</dim>
					<dim>2880</dim>
					<dim>128</dim>
				</port>
			</output>
		</layer>
		<layer id="215" name="/transformer/Concat_19" type="Concat" version="opset1">
			<data axis="0" />
			<input>
				<port id="0" precision="FP32">
					<dim>1</dim>
					<dim>2880</dim>
					<dim>128</dim>
				</port>
				<port id="1" precision="FP32">
					<dim>1</dim>
					<dim>2880</dim>
					<dim>128</dim>
				</port>
			</input>
			<output>
				<port id="2" precision="FP32" names="/transformer/Concat_19_output_0">
					<dim>2</dim>
					<dim>2880</dim>
					<dim>128</dim>
				</port>
			</output>
		</layer>
		<layer id="216" name="Transpose_39744_compressed" type="Const" version="opset1">
			<data element_type="f16" shape="128, 128" offset="9121566" size="32768" />
			<output>
				<port id="0" precision="FP16">
					<dim>128</dim>
					<dim>128</dim>
				</port>
			</output>
		</layer>
		<layer id="217" name="Transpose_39744" type="Convert" version="opset1">
			<data destination_type="f32" />
			<rt_info>
				<attribute name="decompression" version="0" />
			</rt_info>
			<input>
				<port id="0" precision="FP16">
					<dim>128</dim>
					<dim>128</dim>
				</port>
			</input>
			<output>
				<port id="1" precision="FP32">
					<dim>128</dim>
					<dim>128</dim>
				</port>
			</output>
		</layer>
		<layer id="218" name="/transformer/layers.0/self_attn/q_proj/MatMul" type="MatMul" version="opset1">
			<data transpose_a="false" transpose_b="true" />
			<input>
				<port id="0" precision="FP32">
					<dim>2</dim>
					<dim>2880</dim>
					<dim>128</dim>
				</port>
				<port id="1" precision="FP32">
					<dim>128</dim>
					<dim>128</dim>
				</port>
			</input>
			<output>
				<port id="2" precision="FP32" names="/transformer/layers.0/self_attn/q_proj/MatMul_output_0">
					<dim>2</dim>
					<dim>2880</dim>
					<dim>128</dim>
				</port>
			</output>
		</layer>
		<layer id="219" name="/transformer/layers.0/self_attn/Constant_5" type="Const" version="opset1">
			<data element_type="i64" shape="6" offset="9154334" size="48" />
			<rt_info>
				<attribute name="precise" version="0" />
			</rt_info>
			<output>
				<port id="0" precision="I64" names="/transformer/layers.0/self_attn/Constant_5_output_0">
					<dim>6</dim>
				</port>
			</output>
		</layer>
		<layer id="220" name="/transformer/layers.0/self_attn/Reshape_3" type="Reshape" version="opset1">
			<data special_zero="true" />
			<input>
				<port id="0" precision="FP32">
					<dim>2</dim>
					<dim>2880</dim>
					<dim>128</dim>
				</port>
				<port id="1" precision="I64">
					<dim>6</dim>
				</port>
			</input>
			<output>
				<port id="2" precision="FP32" names="/transformer/layers.0/self_attn/Reshape_3_output_0">
					<dim>2</dim>
					<dim>2</dim>
					<dim>36</dim>
					<dim>2</dim>
					<dim>20</dim>
					<dim>128</dim>
				</port>
			</output>
		</layer>
		<layer id="221" name="Constant_2093" type="Const" version="opset1">
			<data element_type="i64" shape="6" offset="9154382" size="48" />
			<output>
				<port id="0" precision="I64">
					<dim>6</dim>
				</port>
			</output>
		</layer>
		<layer id="222" name="/transformer/layers.0/self_attn/Transpose" type="Transpose" version="opset1">
			<input>
				<port id="0" precision="FP32">
					<dim>2</dim>
					<dim>2</dim>
					<dim>36</dim>
					<dim>2</dim>
					<dim>20</dim>
					<dim>128</dim>
				</port>
				<port id="1" precision="I64">
					<dim>6</dim>
				</port>
			</input>
			<output>
				<port id="2" precision="FP32" names="/transformer/layers.0/self_attn/Transpose_output_0">
					<dim>2</dim>
					<dim>2</dim>
					<dim>2</dim>
					<dim>36</dim>
					<dim>20</dim>
					<dim>128</dim>
				</port>
			</output>
		</layer>
		<layer id="223" name="Constant_46837" type="Const" version="opset1">
			<data element_type="i64" shape="3" offset="9154430" size="24" />
			<rt_info>
				<attribute name="precise" version="0" />
			</rt_info>
			<output>
				<port id="0" precision="I64">
					<dim>3</dim>
				</port>
			</output>
		</layer>
		<layer id="224" name="/transformer/layers.0/self_attn/Reshape_9" type="Reshape" version="opset1">
			<data special_zero="false" />
			<input>
				<port id="0" precision="FP32">
					<dim>2</dim>
					<dim>2</dim>
					<dim>2</dim>
					<dim>36</dim>
					<dim>20</dim>
					<dim>128</dim>
				</port>
				<port id="1" precision="I64">
					<dim>3</dim>
				</port>
			</input>
			<output>
				<port id="2" precision="FP32" names="/transformer/layers.0/self_attn/Reshape_9_output_0">
					<dim>8</dim>
					<dim>720</dim>
					<dim>128</dim>
				</port>
			</output>
		</layer>
		<layer id="225" name="Transpose_39747_compressed" type="Const" version="opset1">
			<data element_type="f16" shape="128, 128" offset="9154454" size="32768" />
			<output>
				<port id="0" precision="FP16">
					<dim>128</dim>
					<dim>128</dim>
				</port>
			</output>
		</layer>
		<layer id="226" name="Transpose_39747" type="Convert" version="opset1">
			<data destination_type="f32" />
			<rt_info>
				<attribute name="decompression" version="0" />
			</rt_info>
			<input>
				<port id="0" precision="FP16">
					<dim>128</dim>
					<dim>128</dim>
				</port>
			</input>
			<output>
				<port id="1" precision="FP32">
					<dim>128</dim>
					<dim>128</dim>
				</port>
			</output>
		</layer>
		<layer id="227" name="/transformer/layers.0/self_attn/k_proj/MatMul" type="MatMul" version="opset1">
			<data transpose_a="false" transpose_b="true" />
			<input>
				<port id="0" precision="FP32">
					<dim>2</dim>
					<dim>2880</dim>
					<dim>128</dim>
				</port>
				<port id="1" precision="FP32">
					<dim>128</dim>
					<dim>128</dim>
				</port>
			</input>
			<output>
				<port id="2" precision="FP32" names="/transformer/layers.0/self_attn/k_proj/MatMul_output_0">
					<dim>2</dim>
					<dim>2880</dim>
					<dim>128</dim>
				</port>
			</output>
		</layer>
		<layer id="228" name="/transformer/layers.0/self_attn/Constant_7" type="Const" version="opset1">
			<data element_type="i64" shape="6" offset="9154334" size="48" />
			<rt_info>
				<attribute name="precise" version="0" />
			</rt_info>
			<output>
				<port id="0" precision="I64" names="/transformer/layers.0/self_attn/Constant_7_output_0">
					<dim>6</dim>
				</port>
			</output>
		</layer>
		<layer id="229" name="/transformer/layers.0/self_attn/Reshape_5" type="Reshape" version="opset1">
			<data special_zero="true" />
			<input>
				<port id="0" precision="FP32">
					<dim>2</dim>
					<dim>2880</dim>
					<dim>128</dim>
				</port>
				<port id="1" precision="I64">
					<dim>6</dim>
				</port>
			</input>
			<output>
				<port id="2" precision="FP32" names="/transformer/layers.0/self_attn/Reshape_5_output_0">
					<dim>2</dim>
					<dim>2</dim>
					<dim>36</dim>
					<dim>2</dim>
					<dim>20</dim>
					<dim>128</dim>
				</port>
			</output>
		</layer>
		<layer id="230" name="Constant_2099" type="Const" version="opset1">
			<data element_type="i64" shape="6" offset="9154382" size="48" />
			<output>
				<port id="0" precision="I64">
					<dim>6</dim>
				</port>
			</output>
		</layer>
		<layer id="231" name="/transformer/layers.0/self_attn/Transpose_1" type="Transpose" version="opset1">
			<input>
				<port id="0" precision="FP32">
					<dim>2</dim>
					<dim>2</dim>
					<dim>36</dim>
					<dim>2</dim>
					<dim>20</dim>
					<dim>128</dim>
				</port>
				<port id="1" precision="I64">
					<dim>6</dim>
				</port>
			</input>
			<output>
				<port id="2" precision="FP32" names="/transformer/layers.0/self_attn/Transpose_1_output_0">
					<dim>2</dim>
					<dim>2</dim>
					<dim>2</dim>
					<dim>36</dim>
					<dim>20</dim>
					<dim>128</dim>
				</port>
			</output>
		</layer>
		<layer id="232" name="Constant_46839" type="Const" version="opset1">
			<data element_type="i64" shape="3" offset="9154430" size="24" />
			<rt_info>
				<attribute name="precise" version="0" />
			</rt_info>
			<output>
				<port id="0" precision="I64">
					<dim>3</dim>
				</port>
			</output>
		</layer>
		<layer id="233" name="/transformer/layers.0/self_attn/Reshape_10" type="Reshape" version="opset1">
			<data special_zero="false" />
			<input>
				<port id="0" precision="FP32">
					<dim>2</dim>
					<dim>2</dim>
					<dim>2</dim>
					<dim>36</dim>
					<dim>20</dim>
					<dim>128</dim>
				</port>
				<port id="1" precision="I64">
					<dim>3</dim>
				</port>
			</input>
			<output>
				<port id="2" precision="FP32" names="/transformer/layers.0/self_attn/Reshape_10_output_0">
					<dim>8</dim>
					<dim>720</dim>
					<dim>128</dim>
				</port>
			</output>
		</layer>
		<layer id="234" name="Constant_43317_compressed" type="Const" version="opset1">
			<data element_type="f16" shape="1, 1, 1" offset="9187222" size="2" />
			<output>
				<port id="0" precision="FP16">
					<dim>1</dim>
					<dim>1</dim>
					<dim>1</dim>
				</port>
			</output>
		</layer>
		<layer id="235" name="Constant_43317" type="Convert" version="opset1">
			<data destination_type="f32" />
			<rt_info>
				<attribute name="decompression" version="0" />
			</rt_info>
			<input>
				<port id="0" precision="FP16">
					<dim>1</dim>
					<dim>1</dim>
					<dim>1</dim>
				</port>
			</input>
			<output>
				<port id="1" precision="FP32">
					<dim>1</dim>
					<dim>1</dim>
					<dim>1</dim>
				</port>
			</output>
		</layer>
		<layer id="236" name="Multiply_41317" type="Multiply" version="opset1">
			<data auto_broadcast="numpy" />
			<input>
				<port id="0" precision="FP32">
					<dim>8</dim>
					<dim>720</dim>
					<dim>128</dim>
				</port>
				<port id="1" precision="FP32">
					<dim>1</dim>
					<dim>1</dim>
					<dim>1</dim>
				</port>
			</input>
			<output>
				<port id="2" precision="FP32">
					<dim>8</dim>
					<dim>720</dim>
					<dim>128</dim>
				</port>
			</output>
		</layer>
		<layer id="237" name="/transformer/layers.0/self_attn/Div" type="MatMul" version="opset1">
			<data transpose_a="false" transpose_b="true" />
			<input>
				<port id="0" precision="FP32">
					<dim>8</dim>
					<dim>720</dim>
					<dim>128</dim>
				</port>
				<port id="1" precision="FP32">
					<dim>8</dim>
					<dim>720</dim>
					<dim>128</dim>
				</port>
			</input>
			<output>
				<port id="2" precision="FP32" names="/transformer/layers.0/self_attn/Div_output_0">
					<dim>8</dim>
					<dim>720</dim>
					<dim>720</dim>
				</port>
			</output>
		</layer>
		<layer id="238" name="/transformer/layers.0/self_attn/Softmax" type="SoftMax" version="opset8">
			<data axis="-1" />
			<input>
				<port id="0" precision="FP32">
					<dim>8</dim>
					<dim>720</dim>
					<dim>720</dim>
				</port>
			</input>
			<output>
				<port id="1" precision="FP32" names="/transformer/layers.0/self_attn/Softmax_output_0">
					<dim>8</dim>
					<dim>720</dim>
					<dim>720</dim>
				</port>
			</output>
		</layer>
		<layer id="239" name="Transpose_39750_compressed" type="Const" version="opset1">
			<data element_type="f16" shape="128, 128" offset="9187224" size="32768" />
			<output>
				<port id="0" precision="FP16">
					<dim>128</dim>
					<dim>128</dim>
				</port>
			</output>
		</layer>
		<layer id="240" name="Transpose_39750" type="Convert" version="opset1">
			<data destination_type="f32" />
			<rt_info>
				<attribute name="decompression" version="0" />
			</rt_info>
			<input>
				<port id="0" precision="FP16">
					<dim>128</dim>
					<dim>128</dim>
				</port>
			</input>
			<output>
				<port id="1" precision="FP32">
					<dim>128</dim>
					<dim>128</dim>
				</port>
			</output>
		</layer>
		<layer id="241" name="/transformer/layers.0/self_attn/v_proj/MatMul" type="MatMul" version="opset1">
			<data transpose_a="false" transpose_b="true" />
			<input>
				<port id="0" precision="FP32">
					<dim>2</dim>
					<dim>2880</dim>
					<dim>128</dim>
				</port>
				<port id="1" precision="FP32">
					<dim>128</dim>
					<dim>128</dim>
				</port>
			</input>
			<output>
				<port id="2" precision="FP32" names="/transformer/layers.0/self_attn/v_proj/MatMul_output_0">
					<dim>2</dim>
					<dim>2880</dim>
					<dim>128</dim>
				</port>
			</output>
		</layer>
		<layer id="242" name="/transformer/layers.0/self_attn/Constant_9" type="Const" version="opset1">
			<data element_type="i64" shape="6" offset="9154334" size="48" />
			<rt_info>
				<attribute name="precise" version="0" />
			</rt_info>
			<output>
				<port id="0" precision="I64" names="/transformer/layers.0/self_attn/Constant_9_output_0">
					<dim>6</dim>
				</port>
			</output>
		</layer>
		<layer id="243" name="/transformer/layers.0/self_attn/Reshape_7" type="Reshape" version="opset1">
			<data special_zero="true" />
			<input>
				<port id="0" precision="FP32">
					<dim>2</dim>
					<dim>2880</dim>
					<dim>128</dim>
				</port>
				<port id="1" precision="I64">
					<dim>6</dim>
				</port>
			</input>
			<output>
				<port id="2" precision="FP32" names="/transformer/layers.0/self_attn/Reshape_7_output_0">
					<dim>2</dim>
					<dim>2</dim>
					<dim>36</dim>
					<dim>2</dim>
					<dim>20</dim>
					<dim>128</dim>
				</port>
			</output>
		</layer>
		<layer id="244" name="Constant_2105" type="Const" version="opset1">
			<data element_type="i64" shape="6" offset="9154382" size="48" />
			<output>
				<port id="0" precision="I64">
					<dim>6</dim>
				</port>
			</output>
		</layer>
		<layer id="245" name="/transformer/layers.0/self_attn/Transpose_2" type="Transpose" version="opset1">
			<input>
				<port id="0" precision="FP32">
					<dim>2</dim>
					<dim>2</dim>
					<dim>36</dim>
					<dim>2</dim>
					<dim>20</dim>
					<dim>128</dim>
				</port>
				<port id="1" precision="I64">
					<dim>6</dim>
				</port>
			</input>
			<output>
				<port id="2" precision="FP32" names="/transformer/layers.0/self_attn/Transpose_2_output_0">
					<dim>2</dim>
					<dim>2</dim>
					<dim>2</dim>
					<dim>36</dim>
					<dim>20</dim>
					<dim>128</dim>
				</port>
			</output>
		</layer>
		<layer id="246" name="Constant_46841" type="Const" version="opset1">
			<data element_type="i64" shape="3" offset="9154430" size="24" />
			<rt_info>
				<attribute name="precise" version="0" />
			</rt_info>
			<output>
				<port id="0" precision="I64">
					<dim>3</dim>
				</port>
			</output>
		</layer>
		<layer id="247" name="/transformer/layers.0/self_attn/Reshape_11" type="Reshape" version="opset1">
			<data special_zero="false" />
			<input>
				<port id="0" precision="FP32">
					<dim>2</dim>
					<dim>2</dim>
					<dim>2</dim>
					<dim>36</dim>
					<dim>20</dim>
					<dim>128</dim>
				</port>
				<port id="1" precision="I64">
					<dim>3</dim>
				</port>
			</input>
			<output>
				<port id="2" precision="FP32" names="/transformer/layers.0/self_attn/Reshape_11_output_0">
					<dim>8</dim>
					<dim>720</dim>
					<dim>128</dim>
				</port>
			</output>
		</layer>
		<layer id="248" name="/transformer/layers.0/self_attn/MatMul_1" type="MatMul" version="opset1">
			<data transpose_a="false" transpose_b="false" />
			<input>
				<port id="0" precision="FP32">
					<dim>8</dim>
					<dim>720</dim>
					<dim>720</dim>
				</port>
				<port id="1" precision="FP32">
					<dim>8</dim>
					<dim>720</dim>
					<dim>128</dim>
				</port>
			</input>
			<output>
				<port id="2" precision="FP32" names="/transformer/layers.0/self_attn/MatMul_1_output_0">
					<dim>8</dim>
					<dim>720</dim>
					<dim>128</dim>
				</port>
			</output>
		</layer>
		<layer id="249" name="/transformer/layers.0/self_attn/Constant_15" type="Const" version="opset1">
			<data element_type="i64" shape="6" offset="9219992" size="48" />
			<rt_info>
				<attribute name="precise" version="0" />
			</rt_info>
			<output>
				<port id="0" precision="I64" names="/transformer/layers.0/self_attn/Constant_15_output_0">
					<dim>6</dim>
				</port>
			</output>
		</layer>
		<layer id="250" name="/transformer/layers.0/self_attn/Reshape_13" type="Reshape" version="opset1">
			<data special_zero="true" />
			<input>
				<port id="0" precision="FP32">
					<dim>8</dim>
					<dim>720</dim>
					<dim>128</dim>
				</port>
				<port id="1" precision="I64">
					<dim>6</dim>
				</port>
			</input>
			<output>
				<port id="2" precision="FP32" names="/transformer/layers.0/self_attn/Reshape_13_output_0">
					<dim>2</dim>
					<dim>2</dim>
					<dim>2</dim>
					<dim>36</dim>
					<dim>20</dim>
					<dim>128</dim>
				</port>
			</output>
		</layer>
		<layer id="251" name="Constant_2125" type="Const" version="opset1">
			<data element_type="i64" shape="6" offset="9154382" size="48" />
			<output>
				<port id="0" precision="I64">
					<dim>6</dim>
				</port>
			</output>
		</layer>
		<layer id="252" name="/transformer/layers.0/self_attn/Transpose_4" type="Transpose" version="opset1">
			<input>
				<port id="0" precision="FP32">
					<dim>2</dim>
					<dim>2</dim>
					<dim>2</dim>
					<dim>36</dim>
					<dim>20</dim>
					<dim>128</dim>
				</port>
				<port id="1" precision="I64">
					<dim>6</dim>
				</port>
			</input>
			<output>
				<port id="2" precision="FP32" names="/transformer/layers.0/self_attn/Transpose_4_output_0">
					<dim>2</dim>
					<dim>2</dim>
					<dim>36</dim>
					<dim>2</dim>
					<dim>20</dim>
					<dim>128</dim>
				</port>
			</output>
		</layer>
		<layer id="253" name="Constant_46843" type="Const" version="opset1">
			<data element_type="i64" shape="3" offset="9220040" size="24" />
			<rt_info>
				<attribute name="precise" version="0" />
			</rt_info>
			<output>
				<port id="0" precision="I64">
					<dim>3</dim>
				</port>
			</output>
		</layer>
		<layer id="254" name="/transformer/layers.0/self_attn/Reshape_15" type="Reshape" version="opset1">
			<data special_zero="false" />
			<input>
				<port id="0" precision="FP32">
					<dim>2</dim>
					<dim>2</dim>
					<dim>36</dim>
					<dim>2</dim>
					<dim>20</dim>
					<dim>128</dim>
				</port>
				<port id="1" precision="I64">
					<dim>3</dim>
				</port>
			</input>
			<output>
				<port id="2" precision="FP32" names="/transformer/layers.0/self_attn/Reshape_15_output_0">
					<dim>2</dim>
					<dim>2880</dim>
					<dim>128</dim>
				</port>
			</output>
		</layer>
		<layer id="255" name="Transpose_39753_compressed" type="Const" version="opset1">
			<data element_type="f16" shape="128, 128" offset="9220064" size="32768" />
			<output>
				<port id="0" precision="FP16">
					<dim>128</dim>
					<dim>128</dim>
				</port>
			</output>
		</layer>
		<layer id="256" name="Transpose_39753" type="Convert" version="opset1">
			<data destination_type="f32" />
			<rt_info>
				<attribute name="decompression" version="0" />
			</rt_info>
			<input>
				<port id="0" precision="FP16">
					<dim>128</dim>
					<dim>128</dim>
				</port>
			</input>
			<output>
				<port id="1" precision="FP32">
					<dim>128</dim>
					<dim>128</dim>
				</port>
			</output>
		</layer>
		<layer id="257" name="/transformer/layers.0/self_attn/merge/MatMul" type="MatMul" version="opset1">
			<data transpose_a="false" transpose_b="true" />
			<input>
				<port id="0" precision="FP32">
					<dim>2</dim>
					<dim>2880</dim>
					<dim>128</dim>
				</port>
				<port id="1" precision="FP32">
					<dim>128</dim>
					<dim>128</dim>
				</port>
			</input>
			<output>
				<port id="2" precision="FP32" names="/transformer/layers.0/self_attn/merge/MatMul_output_0">
					<dim>2</dim>
					<dim>2880</dim>
					<dim>128</dim>
				</port>
			</output>
		</layer>
		<layer id="258" name="Constant_2132" type="Const" version="opset1">
			<data element_type="i64" shape="1" offset="9252832" size="8" />
			<output>
				<port id="0" precision="I64">
					<dim>1</dim>
				</port>
			</output>
		</layer>
		<layer id="259" name="/transformer/layers.0/self_attn/norm1/Div" type="MVN" version="opset6">
			<data eps="9.9999997473787516e-06" normalize_variance="true" eps_mode="INSIDE_SQRT" />
			<input>
				<port id="0" precision="FP32">
					<dim>2</dim>
					<dim>2880</dim>
					<dim>128</dim>
				</port>
				<port id="1" precision="I64">
					<dim>1</dim>
				</port>
			</input>
			<output>
				<port id="2" precision="FP32" names="/transformer/layers.0/self_attn/norm1/Div_output_0">
					<dim>2</dim>
					<dim>2880</dim>
					<dim>128</dim>
				</port>
			</output>
		</layer>
		<layer id="260" name="Constant_43318_compressed" type="Const" version="opset1">
			<data element_type="f16" shape="1, 1, 128" offset="9252840" size="256" />
			<output>
				<port id="0" precision="FP16">
					<dim>1</dim>
					<dim>1</dim>
					<dim>128</dim>
				</port>
			</output>
		</layer>
		<layer id="261" name="Constant_43318" type="Convert" version="opset1">
			<data destination_type="f32" />
			<rt_info>
				<attribute name="decompression" version="0" />
			</rt_info>
			<input>
				<port id="0" precision="FP16">
					<dim>1</dim>
					<dim>1</dim>
					<dim>128</dim>
				</port>
			</input>
			<output>
				<port id="1" precision="FP32">
					<dim>1</dim>
					<dim>1</dim>
					<dim>128</dim>
				</port>
			</output>
		</layer>
		<layer id="262" name="/transformer/layers.0/self_attn/norm1/Mul" type="Multiply" version="opset1">
			<data auto_broadcast="numpy" />
			<input>
				<port id="0" precision="FP32">
					<dim>2</dim>
					<dim>2880</dim>
					<dim>128</dim>
				</port>
				<port id="1" precision="FP32">
					<dim>1</dim>
					<dim>1</dim>
					<dim>128</dim>
				</port>
			</input>
			<output>
				<port id="2" precision="FP32" names="/transformer/layers.0/self_attn/norm1/Mul_output_0">
					<dim>2</dim>
					<dim>2880</dim>
					<dim>128</dim>
				</port>
			</output>
		</layer>
		<layer id="263" name="Constant_43319_compressed" type="Const" version="opset1">
			<data element_type="f16" shape="1, 1, 128" offset="9253096" size="256" />
			<output>
				<port id="0" precision="FP16">
					<dim>1</dim>
					<dim>1</dim>
					<dim>128</dim>
				</port>
			</output>
		</layer>
		<layer id="264" name="Constant_43319" type="Convert" version="opset1">
			<data destination_type="f32" />
			<rt_info>
				<attribute name="decompression" version="0" />
			</rt_info>
			<input>
				<port id="0" precision="FP16">
					<dim>1</dim>
					<dim>1</dim>
					<dim>128</dim>
				</port>
			</input>
			<output>
				<port id="1" precision="FP32">
					<dim>1</dim>
					<dim>1</dim>
					<dim>128</dim>
				</port>
			</output>
		</layer>
		<layer id="265" name="/transformer/layers.0/self_attn/norm1/Add_1" type="Add" version="opset1">
			<data auto_broadcast="numpy" />
			<input>
				<port id="0" precision="FP32">
					<dim>2</dim>
					<dim>2880</dim>
					<dim>128</dim>
				</port>
				<port id="1" precision="FP32">
					<dim>1</dim>
					<dim>1</dim>
					<dim>128</dim>
				</port>
			</input>
			<output>
				<port id="2" precision="FP32" names="/transformer/layers.0/self_attn/norm1/Add_1_output_0">
					<dim>2</dim>
					<dim>2880</dim>
					<dim>128</dim>
				</port>
			</output>
		</layer>
		<layer id="266" name="/transformer/layers.0/self_attn/Add" type="Add" version="opset1">
			<data auto_broadcast="numpy" />
			<input>
				<port id="0" precision="FP32">
					<dim>2</dim>
					<dim>2880</dim>
					<dim>128</dim>
				</port>
				<port id="1" precision="FP32">
					<dim>2</dim>
					<dim>2880</dim>
					<dim>128</dim>
				</port>
			</input>
			<output>
				<port id="2" precision="FP32" names="/transformer/layers.0/self_attn/Add_output_0">
					<dim>2</dim>
					<dim>2880</dim>
					<dim>128</dim>
				</port>
			</output>
		</layer>
		<layer id="267" name="Transpose_39767_compressed" type="Const" version="opset1">
			<data element_type="f16" shape="128, 128" offset="9253352" size="32768" />
			<output>
				<port id="0" precision="FP16">
					<dim>128</dim>
					<dim>128</dim>
				</port>
			</output>
		</layer>
		<layer id="268" name="Transpose_39767" type="Convert" version="opset1">
			<data destination_type="f32" />
			<rt_info>
				<attribute name="decompression" version="0" />
			</rt_info>
			<input>
				<port id="0" precision="FP16">
					<dim>128</dim>
					<dim>128</dim>
				</port>
			</input>
			<output>
				<port id="1" precision="FP32">
					<dim>128</dim>
					<dim>128</dim>
				</port>
			</output>
		</layer>
		<layer id="269" name="/transformer/layers.0/cross_attn_ffn/q_proj/MatMul" type="MatMul" version="opset1">
			<data transpose_a="false" transpose_b="true" />
			<input>
				<port id="0" precision="FP32">
					<dim>2</dim>
					<dim>2880</dim>
					<dim>128</dim>
				</port>
				<port id="1" precision="FP32">
					<dim>128</dim>
					<dim>128</dim>
				</port>
			</input>
			<output>
				<port id="2" precision="FP32" names="/transformer/layers.0/cross_attn_ffn/q_proj/MatMul_output_0">
					<dim>2</dim>
					<dim>2880</dim>
					<dim>128</dim>
				</port>
			</output>
		</layer>
		<layer id="270" name="/transformer/layers.0/cross_attn_ffn/Constant_5" type="Const" version="opset1">
			<data element_type="i64" shape="6" offset="9154334" size="48" />
			<rt_info>
				<attribute name="precise" version="0" />
			</rt_info>
			<output>
				<port id="0" precision="I64" names="/transformer/layers.0/cross_attn_ffn/Constant_5_output_0">
					<dim>6</dim>
				</port>
			</output>
		</layer>
		<layer id="271" name="/transformer/layers.0/cross_attn_ffn/Reshape_3" type="Reshape" version="opset1">
			<data special_zero="true" />
			<input>
				<port id="0" precision="FP32">
					<dim>2</dim>
					<dim>2880</dim>
					<dim>128</dim>
				</port>
				<port id="1" precision="I64">
					<dim>6</dim>
				</port>
			</input>
			<output>
				<port id="2" precision="FP32" names="/transformer/layers.0/cross_attn_ffn/Reshape_3_output_0">
					<dim>2</dim>
					<dim>2</dim>
					<dim>36</dim>
					<dim>2</dim>
					<dim>20</dim>
					<dim>128</dim>
				</port>
			</output>
		</layer>
		<layer id="272" name="Constant_2160" type="Const" version="opset1">
			<data element_type="i64" shape="6" offset="9154382" size="48" />
			<output>
				<port id="0" precision="I64">
					<dim>6</dim>
				</port>
			</output>
		</layer>
		<layer id="273" name="/transformer/layers.0/cross_attn_ffn/Transpose" type="Transpose" version="opset1">
			<input>
				<port id="0" precision="FP32">
					<dim>2</dim>
					<dim>2</dim>
					<dim>36</dim>
					<dim>2</dim>
					<dim>20</dim>
					<dim>128</dim>
				</port>
				<port id="1" precision="I64">
					<dim>6</dim>
				</port>
			</input>
			<output>
				<port id="2" precision="FP32" names="/transformer/layers.0/cross_attn_ffn/Transpose_output_0">
					<dim>2</dim>
					<dim>2</dim>
					<dim>2</dim>
					<dim>36</dim>
					<dim>20</dim>
					<dim>128</dim>
				</port>
			</output>
		</layer>
		<layer id="274" name="Constant_46845" type="Const" version="opset1">
			<data element_type="i64" shape="3" offset="9154430" size="24" />
			<rt_info>
				<attribute name="precise" version="0" />
			</rt_info>
			<output>
				<port id="0" precision="I64">
					<dim>3</dim>
				</port>
			</output>
		</layer>
		<layer id="275" name="/transformer/layers.0/cross_attn_ffn/Reshape_9" type="Reshape" version="opset1">
			<data special_zero="false" />
			<input>
				<port id="0" precision="FP32">
					<dim>2</dim>
					<dim>2</dim>
					<dim>2</dim>
					<dim>36</dim>
					<dim>20</dim>
					<dim>128</dim>
				</port>
				<port id="1" precision="I64">
					<dim>3</dim>
				</port>
			</input>
			<output>
				<port id="2" precision="FP32" names="/transformer/layers.0/cross_attn_ffn/Reshape_9_output_0">
					<dim>8</dim>
					<dim>720</dim>
					<dim>128</dim>
				</port>
			</output>
		</layer>
		<layer id="276" name="/transformer/Concat_20" type="Concat" version="opset1">
			<data axis="0" />
			<input>
				<port id="0" precision="FP32">
					<dim>1</dim>
					<dim>2880</dim>
					<dim>128</dim>
				</port>
				<port id="1" precision="FP32">
					<dim>1</dim>
					<dim>2880</dim>
					<dim>128</dim>
				</port>
			</input>
			<output>
				<port id="2" precision="FP32" names="/transformer/Concat_20_output_0">
					<dim>2</dim>
					<dim>2880</dim>
					<dim>128</dim>
				</port>
			</output>
		</layer>
		<layer id="277" name="Transpose_39770_compressed" type="Const" version="opset1">
			<data element_type="f16" shape="128, 128" offset="9286120" size="32768" />
			<output>
				<port id="0" precision="FP16">
					<dim>128</dim>
					<dim>128</dim>
				</port>
			</output>
		</layer>
		<layer id="278" name="Transpose_39770" type="Convert" version="opset1">
			<data destination_type="f32" />
			<rt_info>
				<attribute name="decompression" version="0" />
			</rt_info>
			<input>
				<port id="0" precision="FP16">
					<dim>128</dim>
					<dim>128</dim>
				</port>
			</input>
			<output>
				<port id="1" precision="FP32">
					<dim>128</dim>
					<dim>128</dim>
				</port>
			</output>
		</layer>
		<layer id="279" name="/transformer/layers.0/cross_attn_ffn/k_proj/MatMul" type="MatMul" version="opset1">
			<data transpose_a="false" transpose_b="true" />
			<input>
				<port id="0" precision="FP32">
					<dim>2</dim>
					<dim>2880</dim>
					<dim>128</dim>
				</port>
				<port id="1" precision="FP32">
					<dim>128</dim>
					<dim>128</dim>
				</port>
			</input>
			<output>
				<port id="2" precision="FP32" names="/transformer/layers.0/cross_attn_ffn/k_proj/MatMul_output_0">
					<dim>2</dim>
					<dim>2880</dim>
					<dim>128</dim>
				</port>
			</output>
		</layer>
		<layer id="280" name="/transformer/layers.0/cross_attn_ffn/Constant_7" type="Const" version="opset1">
			<data element_type="i64" shape="6" offset="9154334" size="48" />
			<rt_info>
				<attribute name="precise" version="0" />
			</rt_info>
			<output>
				<port id="0" precision="I64" names="/transformer/layers.0/cross_attn_ffn/Constant_7_output_0">
					<dim>6</dim>
				</port>
			</output>
		</layer>
		<layer id="281" name="/transformer/layers.0/cross_attn_ffn/Reshape_5" type="Reshape" version="opset1">
			<data special_zero="true" />
			<input>
				<port id="0" precision="FP32">
					<dim>2</dim>
					<dim>2880</dim>
					<dim>128</dim>
				</port>
				<port id="1" precision="I64">
					<dim>6</dim>
				</port>
			</input>
			<output>
				<port id="2" precision="FP32" names="/transformer/layers.0/cross_attn_ffn/Reshape_5_output_0">
					<dim>2</dim>
					<dim>2</dim>
					<dim>36</dim>
					<dim>2</dim>
					<dim>20</dim>
					<dim>128</dim>
				</port>
			</output>
		</layer>
		<layer id="282" name="Constant_2166" type="Const" version="opset1">
			<data element_type="i64" shape="6" offset="9154382" size="48" />
			<output>
				<port id="0" precision="I64">
					<dim>6</dim>
				</port>
			</output>
		</layer>
		<layer id="283" name="/transformer/layers.0/cross_attn_ffn/Transpose_1" type="Transpose" version="opset1">
			<input>
				<port id="0" precision="FP32">
					<dim>2</dim>
					<dim>2</dim>
					<dim>36</dim>
					<dim>2</dim>
					<dim>20</dim>
					<dim>128</dim>
				</port>
				<port id="1" precision="I64">
					<dim>6</dim>
				</port>
			</input>
			<output>
				<port id="2" precision="FP32" names="/transformer/layers.0/cross_attn_ffn/Transpose_1_output_0">
					<dim>2</dim>
					<dim>2</dim>
					<dim>2</dim>
					<dim>36</dim>
					<dim>20</dim>
					<dim>128</dim>
				</port>
			</output>
		</layer>
		<layer id="284" name="Constant_46847" type="Const" version="opset1">
			<data element_type="i64" shape="3" offset="9154430" size="24" />
			<rt_info>
				<attribute name="precise" version="0" />
			</rt_info>
			<output>
				<port id="0" precision="I64">
					<dim>3</dim>
				</port>
			</output>
		</layer>
		<layer id="285" name="/transformer/layers.0/cross_attn_ffn/Reshape_10" type="Reshape" version="opset1">
			<data special_zero="false" />
			<input>
				<port id="0" precision="FP32">
					<dim>2</dim>
					<dim>2</dim>
					<dim>2</dim>
					<dim>36</dim>
					<dim>20</dim>
					<dim>128</dim>
				</port>
				<port id="1" precision="I64">
					<dim>3</dim>
				</port>
			</input>
			<output>
				<port id="2" precision="FP32" names="/transformer/layers.0/cross_attn_ffn/Reshape_10_output_0">
					<dim>8</dim>
					<dim>720</dim>
					<dim>128</dim>
				</port>
			</output>
		</layer>
		<layer id="286" name="Constant_43320_compressed" type="Const" version="opset1">
			<data element_type="f16" shape="1, 1, 1" offset="9187222" size="2" />
			<output>
				<port id="0" precision="FP16">
					<dim>1</dim>
					<dim>1</dim>
					<dim>1</dim>
				</port>
			</output>
		</layer>
		<layer id="287" name="Constant_43320" type="Convert" version="opset1">
			<data destination_type="f32" />
			<rt_info>
				<attribute name="decompression" version="0" />
			</rt_info>
			<input>
				<port id="0" precision="FP16">
					<dim>1</dim>
					<dim>1</dim>
					<dim>1</dim>
				</port>
			</input>
			<output>
				<port id="1" precision="FP32">
					<dim>1</dim>
					<dim>1</dim>
					<dim>1</dim>
				</port>
			</output>
		</layer>
		<layer id="288" name="Multiply_41319" type="Multiply" version="opset1">
			<data auto_broadcast="numpy" />
			<input>
				<port id="0" precision="FP32">
					<dim>8</dim>
					<dim>720</dim>
					<dim>128</dim>
				</port>
				<port id="1" precision="FP32">
					<dim>1</dim>
					<dim>1</dim>
					<dim>1</dim>
				</port>
			</input>
			<output>
				<port id="2" precision="FP32">
					<dim>8</dim>
					<dim>720</dim>
					<dim>128</dim>
				</port>
			</output>
		</layer>
		<layer id="289" name="/transformer/layers.0/cross_attn_ffn/Div" type="MatMul" version="opset1">
			<data transpose_a="false" transpose_b="true" />
			<input>
				<port id="0" precision="FP32">
					<dim>8</dim>
					<dim>720</dim>
					<dim>128</dim>
				</port>
				<port id="1" precision="FP32">
					<dim>8</dim>
					<dim>720</dim>
					<dim>128</dim>
				</port>
			</input>
			<output>
				<port id="2" precision="FP32" names="/transformer/layers.0/cross_attn_ffn/Div_output_0">
					<dim>8</dim>
					<dim>720</dim>
					<dim>720</dim>
				</port>
			</output>
		</layer>
		<layer id="290" name="/transformer/layers.0/cross_attn_ffn/Softmax" type="SoftMax" version="opset8">
			<data axis="-1" />
			<input>
				<port id="0" precision="FP32">
					<dim>8</dim>
					<dim>720</dim>
					<dim>720</dim>
				</port>
			</input>
			<output>
				<port id="1" precision="FP32" names="/transformer/layers.0/cross_attn_ffn/Softmax_output_0">
					<dim>8</dim>
					<dim>720</dim>
					<dim>720</dim>
				</port>
			</output>
		</layer>
		<layer id="291" name="Transpose_39773_compressed" type="Const" version="opset1">
			<data element_type="f16" shape="128, 128" offset="9318888" size="32768" />
			<output>
				<port id="0" precision="FP16">
					<dim>128</dim>
					<dim>128</dim>
				</port>
			</output>
		</layer>
		<layer id="292" name="Transpose_39773" type="Convert" version="opset1">
			<data destination_type="f32" />
			<rt_info>
				<attribute name="decompression" version="0" />
			</rt_info>
			<input>
				<port id="0" precision="FP16">
					<dim>128</dim>
					<dim>128</dim>
				</port>
			</input>
			<output>
				<port id="1" precision="FP32">
					<dim>128</dim>
					<dim>128</dim>
				</port>
			</output>
		</layer>
		<layer id="293" name="/transformer/layers.0/cross_attn_ffn/v_proj/MatMul" type="MatMul" version="opset1">
			<data transpose_a="false" transpose_b="true" />
			<input>
				<port id="0" precision="FP32">
					<dim>2</dim>
					<dim>2880</dim>
					<dim>128</dim>
				</port>
				<port id="1" precision="FP32">
					<dim>128</dim>
					<dim>128</dim>
				</port>
			</input>
			<output>
				<port id="2" precision="FP32" names="/transformer/layers.0/cross_attn_ffn/v_proj/MatMul_output_0">
					<dim>2</dim>
					<dim>2880</dim>
					<dim>128</dim>
				</port>
			</output>
		</layer>
		<layer id="294" name="/transformer/layers.0/cross_attn_ffn/Constant_9" type="Const" version="opset1">
			<data element_type="i64" shape="6" offset="9154334" size="48" />
			<rt_info>
				<attribute name="precise" version="0" />
			</rt_info>
			<output>
				<port id="0" precision="I64" names="/transformer/layers.0/cross_attn_ffn/Constant_9_output_0">
					<dim>6</dim>
				</port>
			</output>
		</layer>
		<layer id="295" name="/transformer/layers.0/cross_attn_ffn/Reshape_7" type="Reshape" version="opset1">
			<data special_zero="true" />
			<input>
				<port id="0" precision="FP32">
					<dim>2</dim>
					<dim>2880</dim>
					<dim>128</dim>
				</port>
				<port id="1" precision="I64">
					<dim>6</dim>
				</port>
			</input>
			<output>
				<port id="2" precision="FP32" names="/transformer/layers.0/cross_attn_ffn/Reshape_7_output_0">
					<dim>2</dim>
					<dim>2</dim>
					<dim>36</dim>
					<dim>2</dim>
					<dim>20</dim>
					<dim>128</dim>
				</port>
			</output>
		</layer>
		<layer id="296" name="Constant_2172" type="Const" version="opset1">
			<data element_type="i64" shape="6" offset="9154382" size="48" />
			<output>
				<port id="0" precision="I64">
					<dim>6</dim>
				</port>
			</output>
		</layer>
		<layer id="297" name="/transformer/layers.0/cross_attn_ffn/Transpose_2" type="Transpose" version="opset1">
			<input>
				<port id="0" precision="FP32">
					<dim>2</dim>
					<dim>2</dim>
					<dim>36</dim>
					<dim>2</dim>
					<dim>20</dim>
					<dim>128</dim>
				</port>
				<port id="1" precision="I64">
					<dim>6</dim>
				</port>
			</input>
			<output>
				<port id="2" precision="FP32" names="/transformer/layers.0/cross_attn_ffn/Transpose_2_output_0">
					<dim>2</dim>
					<dim>2</dim>
					<dim>2</dim>
					<dim>36</dim>
					<dim>20</dim>
					<dim>128</dim>
				</port>
			</output>
		</layer>
		<layer id="298" name="Constant_46849" type="Const" version="opset1">
			<data element_type="i64" shape="3" offset="9154430" size="24" />
			<rt_info>
				<attribute name="precise" version="0" />
			</rt_info>
			<output>
				<port id="0" precision="I64">
					<dim>3</dim>
				</port>
			</output>
		</layer>
		<layer id="299" name="/transformer/layers.0/cross_attn_ffn/Reshape_11" type="Reshape" version="opset1">
			<data special_zero="false" />
			<input>
				<port id="0" precision="FP32">
					<dim>2</dim>
					<dim>2</dim>
					<dim>2</dim>
					<dim>36</dim>
					<dim>20</dim>
					<dim>128</dim>
				</port>
				<port id="1" precision="I64">
					<dim>3</dim>
				</port>
			</input>
			<output>
				<port id="2" precision="FP32" names="/transformer/layers.0/cross_attn_ffn/Reshape_11_output_0">
					<dim>8</dim>
					<dim>720</dim>
					<dim>128</dim>
				</port>
			</output>
		</layer>
		<layer id="300" name="/transformer/layers.0/cross_attn_ffn/MatMul_1" type="MatMul" version="opset1">
			<data transpose_a="false" transpose_b="false" />
			<input>
				<port id="0" precision="FP32">
					<dim>8</dim>
					<dim>720</dim>
					<dim>720</dim>
				</port>
				<port id="1" precision="FP32">
					<dim>8</dim>
					<dim>720</dim>
					<dim>128</dim>
				</port>
			</input>
			<output>
				<port id="2" precision="FP32" names="/transformer/layers.0/cross_attn_ffn/MatMul_1_output_0">
					<dim>8</dim>
					<dim>720</dim>
					<dim>128</dim>
				</port>
			</output>
		</layer>
		<layer id="301" name="/transformer/layers.0/cross_attn_ffn/Constant_15" type="Const" version="opset1">
			<data element_type="i64" shape="6" offset="9219992" size="48" />
			<rt_info>
				<attribute name="precise" version="0" />
			</rt_info>
			<output>
				<port id="0" precision="I64" names="/transformer/layers.0/cross_attn_ffn/Constant_15_output_0">
					<dim>6</dim>
				</port>
			</output>
		</layer>
		<layer id="302" name="/transformer/layers.0/cross_attn_ffn/Reshape_13" type="Reshape" version="opset1">
			<data special_zero="true" />
			<input>
				<port id="0" precision="FP32">
					<dim>8</dim>
					<dim>720</dim>
					<dim>128</dim>
				</port>
				<port id="1" precision="I64">
					<dim>6</dim>
				</port>
			</input>
			<output>
				<port id="2" precision="FP32" names="/transformer/layers.0/cross_attn_ffn/Reshape_13_output_0">
					<dim>2</dim>
					<dim>2</dim>
					<dim>2</dim>
					<dim>36</dim>
					<dim>20</dim>
					<dim>128</dim>
				</port>
			</output>
		</layer>
		<layer id="303" name="Constant_2192" type="Const" version="opset1">
			<data element_type="i64" shape="6" offset="9154382" size="48" />
			<output>
				<port id="0" precision="I64">
					<dim>6</dim>
				</port>
			</output>
		</layer>
		<layer id="304" name="/transformer/layers.0/cross_attn_ffn/Transpose_4" type="Transpose" version="opset1">
			<input>
				<port id="0" precision="FP32">
					<dim>2</dim>
					<dim>2</dim>
					<dim>2</dim>
					<dim>36</dim>
					<dim>20</dim>
					<dim>128</dim>
				</port>
				<port id="1" precision="I64">
					<dim>6</dim>
				</port>
			</input>
			<output>
				<port id="2" precision="FP32" names="/transformer/layers.0/cross_attn_ffn/Transpose_4_output_0">
					<dim>2</dim>
					<dim>2</dim>
					<dim>36</dim>
					<dim>2</dim>
					<dim>20</dim>
					<dim>128</dim>
				</port>
			</output>
		</layer>
		<layer id="305" name="Constant_46851" type="Const" version="opset1">
			<data element_type="i64" shape="3" offset="9220040" size="24" />
			<rt_info>
				<attribute name="precise" version="0" />
			</rt_info>
			<output>
				<port id="0" precision="I64">
					<dim>3</dim>
				</port>
			</output>
		</layer>
		<layer id="306" name="/transformer/layers.0/cross_attn_ffn/Reshape_15" type="Reshape" version="opset1">
			<data special_zero="false" />
			<input>
				<port id="0" precision="FP32">
					<dim>2</dim>
					<dim>2</dim>
					<dim>36</dim>
					<dim>2</dim>
					<dim>20</dim>
					<dim>128</dim>
				</port>
				<port id="1" precision="I64">
					<dim>3</dim>
				</port>
			</input>
			<output>
				<port id="2" precision="FP32" names="/transformer/layers.0/cross_attn_ffn/Reshape_15_output_0">
					<dim>2</dim>
					<dim>2880</dim>
					<dim>128</dim>
				</port>
			</output>
		</layer>
		<layer id="307" name="Transpose_39776_compressed" type="Const" version="opset1">
			<data element_type="f16" shape="128, 128" offset="9351656" size="32768" />
			<output>
				<port id="0" precision="FP16">
					<dim>128</dim>
					<dim>128</dim>
				</port>
			</output>
		</layer>
		<layer id="308" name="Transpose_39776" type="Convert" version="opset1">
			<data destination_type="f32" />
			<rt_info>
				<attribute name="decompression" version="0" />
			</rt_info>
			<input>
				<port id="0" precision="FP16">
					<dim>128</dim>
					<dim>128</dim>
				</port>
			</input>
			<output>
				<port id="1" precision="FP32">
					<dim>128</dim>
					<dim>128</dim>
				</port>
			</output>
		</layer>
		<layer id="309" name="/transformer/layers.0/cross_attn_ffn/merge/MatMul" type="MatMul" version="opset1">
			<data transpose_a="false" transpose_b="true" />
			<input>
				<port id="0" precision="FP32">
					<dim>2</dim>
					<dim>2880</dim>
					<dim>128</dim>
				</port>
				<port id="1" precision="FP32">
					<dim>128</dim>
					<dim>128</dim>
				</port>
			</input>
			<output>
				<port id="2" precision="FP32" names="/transformer/layers.0/cross_attn_ffn/merge/MatMul_output_0">
					<dim>2</dim>
					<dim>2880</dim>
					<dim>128</dim>
				</port>
			</output>
		</layer>
		<layer id="310" name="Constant_2199" type="Const" version="opset1">
			<data element_type="i64" shape="1" offset="9252832" size="8" />
			<output>
				<port id="0" precision="I64">
					<dim>1</dim>
				</port>
			</output>
		</layer>
		<layer id="311" name="/transformer/layers.0/cross_attn_ffn/norm1/Div" type="MVN" version="opset6">
			<data eps="9.9999997473787516e-06" normalize_variance="true" eps_mode="INSIDE_SQRT" />
			<input>
				<port id="0" precision="FP32">
					<dim>2</dim>
					<dim>2880</dim>
					<dim>128</dim>
				</port>
				<port id="1" precision="I64">
					<dim>1</dim>
				</port>
			</input>
			<output>
				<port id="2" precision="FP32" names="/transformer/layers.0/cross_attn_ffn/norm1/Div_output_0">
					<dim>2</dim>
					<dim>2880</dim>
					<dim>128</dim>
				</port>
			</output>
		</layer>
		<layer id="312" name="Constant_43321_compressed" type="Const" version="opset1">
			<data element_type="f16" shape="1, 1, 128" offset="9384424" size="256" />
			<output>
				<port id="0" precision="FP16">
					<dim>1</dim>
					<dim>1</dim>
					<dim>128</dim>
				</port>
			</output>
		</layer>
		<layer id="313" name="Constant_43321" type="Convert" version="opset1">
			<data destination_type="f32" />
			<rt_info>
				<attribute name="decompression" version="0" />
			</rt_info>
			<input>
				<port id="0" precision="FP16">
					<dim>1</dim>
					<dim>1</dim>
					<dim>128</dim>
				</port>
			</input>
			<output>
				<port id="1" precision="FP32">
					<dim>1</dim>
					<dim>1</dim>
					<dim>128</dim>
				</port>
			</output>
		</layer>
		<layer id="314" name="/transformer/layers.0/cross_attn_ffn/norm1/Mul" type="Multiply" version="opset1">
			<data auto_broadcast="numpy" />
			<input>
				<port id="0" precision="FP32">
					<dim>2</dim>
					<dim>2880</dim>
					<dim>128</dim>
				</port>
				<port id="1" precision="FP32">
					<dim>1</dim>
					<dim>1</dim>
					<dim>128</dim>
				</port>
			</input>
			<output>
				<port id="2" precision="FP32" names="/transformer/layers.0/cross_attn_ffn/norm1/Mul_output_0">
					<dim>2</dim>
					<dim>2880</dim>
					<dim>128</dim>
				</port>
			</output>
		</layer>
		<layer id="315" name="Constant_43322_compressed" type="Const" version="opset1">
			<data element_type="f16" shape="1, 1, 128" offset="9384680" size="256" />
			<output>
				<port id="0" precision="FP16">
					<dim>1</dim>
					<dim>1</dim>
					<dim>128</dim>
				</port>
			</output>
		</layer>
		<layer id="316" name="Constant_43322" type="Convert" version="opset1">
			<data destination_type="f32" />
			<rt_info>
				<attribute name="decompression" version="0" />
			</rt_info>
			<input>
				<port id="0" precision="FP16">
					<dim>1</dim>
					<dim>1</dim>
					<dim>128</dim>
				</port>
			</input>
			<output>
				<port id="1" precision="FP32">
					<dim>1</dim>
					<dim>1</dim>
					<dim>128</dim>
				</port>
			</output>
		</layer>
		<layer id="317" name="/transformer/layers.0/cross_attn_ffn/norm1/Add_1" type="Add" version="opset1">
			<data auto_broadcast="numpy" />
			<input>
				<port id="0" precision="FP32">
					<dim>2</dim>
					<dim>2880</dim>
					<dim>128</dim>
				</port>
				<port id="1" precision="FP32">
					<dim>1</dim>
					<dim>1</dim>
					<dim>128</dim>
				</port>
			</input>
			<output>
				<port id="2" precision="FP32" names="/transformer/layers.0/cross_attn_ffn/norm1/Add_1_output_0">
					<dim>2</dim>
					<dim>2880</dim>
					<dim>128</dim>
				</port>
			</output>
		</layer>
		<layer id="318" name="/transformer/layers.0/cross_attn_ffn/Concat" type="Concat" version="opset1">
			<data axis="-1" />
			<input>
				<port id="0" precision="FP32">
					<dim>2</dim>
					<dim>2880</dim>
					<dim>128</dim>
				</port>
				<port id="1" precision="FP32">
					<dim>2</dim>
					<dim>2880</dim>
					<dim>128</dim>
				</port>
			</input>
			<output>
				<port id="2" precision="FP32" names="/transformer/layers.0/cross_attn_ffn/Concat_output_0">
					<dim>2</dim>
					<dim>2880</dim>
					<dim>256</dim>
				</port>
			</output>
		</layer>
		<layer id="319" name="Transpose_39788_compressed" type="Const" version="opset1">
			<data element_type="f16" shape="1024, 256" offset="9384936" size="524288" />
			<output>
				<port id="0" precision="FP16">
					<dim>1024</dim>
					<dim>256</dim>
				</port>
			</output>
		</layer>
		<layer id="320" name="Transpose_39788" type="Convert" version="opset1">
			<data destination_type="f32" />
			<rt_info>
				<attribute name="decompression" version="0" />
			</rt_info>
			<input>
				<port id="0" precision="FP16">
					<dim>1024</dim>
					<dim>256</dim>
				</port>
			</input>
			<output>
				<port id="1" precision="FP32">
					<dim>1024</dim>
					<dim>256</dim>
				</port>
			</output>
		</layer>
		<layer id="321" name="/transformer/layers.0/cross_attn_ffn/mlp/mlp.0/MatMul" type="MatMul" version="opset1">
			<data transpose_a="false" transpose_b="true" />
			<input>
				<port id="0" precision="FP32">
					<dim>2</dim>
					<dim>2880</dim>
					<dim>256</dim>
				</port>
				<port id="1" precision="FP32">
					<dim>1024</dim>
					<dim>256</dim>
				</port>
			</input>
			<output>
				<port id="2" precision="FP32" names="/transformer/layers.0/cross_attn_ffn/mlp/mlp.0/MatMul_output_0">
					<dim>2</dim>
					<dim>2880</dim>
					<dim>1024</dim>
				</port>
			</output>
		</layer>
		<layer id="322" name="/transformer/layers.0/cross_attn_ffn/mlp/mlp.1/Mul_1" type="Gelu" version="opset7">
			<data approximation_mode="ERF" />
			<input>
				<port id="0" precision="FP32">
					<dim>2</dim>
					<dim>2880</dim>
					<dim>1024</dim>
				</port>
			</input>
			<output>
				<port id="1" precision="FP32" names="/transformer/layers.0/cross_attn_ffn/mlp/mlp.1/Mul_1_output_0">
					<dim>2</dim>
					<dim>2880</dim>
					<dim>1024</dim>
				</port>
			</output>
		</layer>
		<layer id="323" name="Transpose_39796_compressed" type="Const" version="opset1">
			<data element_type="f16" shape="128, 1024" offset="9909224" size="262144" />
			<output>
				<port id="0" precision="FP16">
					<dim>128</dim>
					<dim>1024</dim>
				</port>
			</output>
		</layer>
		<layer id="324" name="Transpose_39796" type="Convert" version="opset1">
			<data destination_type="f32" />
			<rt_info>
				<attribute name="decompression" version="0" />
			</rt_info>
			<input>
				<port id="0" precision="FP16">
					<dim>128</dim>
					<dim>1024</dim>
				</port>
			</input>
			<output>
				<port id="1" precision="FP32">
					<dim>128</dim>
					<dim>1024</dim>
				</port>
			</output>
		</layer>
		<layer id="325" name="/transformer/layers.0/cross_attn_ffn/mlp/mlp.2/MatMul" type="MatMul" version="opset1">
			<data transpose_a="false" transpose_b="true" />
			<input>
				<port id="0" precision="FP32">
					<dim>2</dim>
					<dim>2880</dim>
					<dim>1024</dim>
				</port>
				<port id="1" precision="FP32">
					<dim>128</dim>
					<dim>1024</dim>
				</port>
			</input>
			<output>
				<port id="2" precision="FP32" names="/transformer/layers.0/cross_attn_ffn/mlp/mlp.2/MatMul_output_0">
					<dim>2</dim>
					<dim>2880</dim>
					<dim>128</dim>
				</port>
			</output>
		</layer>
		<layer id="326" name="Constant_2223" type="Const" version="opset1">
			<data element_type="i64" shape="1" offset="9252832" size="8" />
			<output>
				<port id="0" precision="I64">
					<dim>1</dim>
				</port>
			</output>
		</layer>
		<layer id="327" name="/transformer/layers.0/cross_attn_ffn/norm2/Div" type="MVN" version="opset6">
			<data eps="9.9999997473787516e-06" normalize_variance="true" eps_mode="INSIDE_SQRT" />
			<input>
				<port id="0" precision="FP32">
					<dim>2</dim>
					<dim>2880</dim>
					<dim>128</dim>
				</port>
				<port id="1" precision="I64">
					<dim>1</dim>
				</port>
			</input>
			<output>
				<port id="2" precision="FP32" names="/transformer/layers.0/cross_attn_ffn/norm2/Div_output_0">
					<dim>2</dim>
					<dim>2880</dim>
					<dim>128</dim>
				</port>
			</output>
		</layer>
		<layer id="328" name="Constant_43323_compressed" type="Const" version="opset1">
			<data element_type="f16" shape="1, 1, 128" offset="10171368" size="256" />
			<output>
				<port id="0" precision="FP16">
					<dim>1</dim>
					<dim>1</dim>
					<dim>128</dim>
				</port>
			</output>
		</layer>
		<layer id="329" name="Constant_43323" type="Convert" version="opset1">
			<data destination_type="f32" />
			<rt_info>
				<attribute name="decompression" version="0" />
			</rt_info>
			<input>
				<port id="0" precision="FP16">
					<dim>1</dim>
					<dim>1</dim>
					<dim>128</dim>
				</port>
			</input>
			<output>
				<port id="1" precision="FP32">
					<dim>1</dim>
					<dim>1</dim>
					<dim>128</dim>
				</port>
			</output>
		</layer>
		<layer id="330" name="/transformer/layers.0/cross_attn_ffn/norm2/Mul" type="Multiply" version="opset1">
			<data auto_broadcast="numpy" />
			<input>
				<port id="0" precision="FP32">
					<dim>2</dim>
					<dim>2880</dim>
					<dim>128</dim>
				</port>
				<port id="1" precision="FP32">
					<dim>1</dim>
					<dim>1</dim>
					<dim>128</dim>
				</port>
			</input>
			<output>
				<port id="2" precision="FP32" names="/transformer/layers.0/cross_attn_ffn/norm2/Mul_output_0">
					<dim>2</dim>
					<dim>2880</dim>
					<dim>128</dim>
				</port>
			</output>
		</layer>
		<layer id="331" name="Constant_43324_compressed" type="Const" version="opset1">
			<data element_type="f16" shape="1, 1, 128" offset="10171624" size="256" />
			<output>
				<port id="0" precision="FP16">
					<dim>1</dim>
					<dim>1</dim>
					<dim>128</dim>
				</port>
			</output>
		</layer>
		<layer id="332" name="Constant_43324" type="Convert" version="opset1">
			<data destination_type="f32" />
			<rt_info>
				<attribute name="decompression" version="0" />
			</rt_info>
			<input>
				<port id="0" precision="FP16">
					<dim>1</dim>
					<dim>1</dim>
					<dim>128</dim>
				</port>
			</input>
			<output>
				<port id="1" precision="FP32">
					<dim>1</dim>
					<dim>1</dim>
					<dim>128</dim>
				</port>
			</output>
		</layer>
		<layer id="333" name="/transformer/layers.0/cross_attn_ffn/norm2/Add_1" type="Add" version="opset1">
…
		<edge from-layer="3452" from-port="1" to-layer="3453" to-port="1" />
		<edge from-layer="3453" from-port="2" to-layer="3456" to-port="0" />
		<edge from-layer="3454" from-port="0" to-layer="3455" to-port="0" />
		<edge from-layer="3455" from-port="1" to-layer="3456" to-port="1" />
		<edge from-layer="3456" from-port="2" to-layer="3457" to-port="0" />
		<edge from-layer="3457" from-port="1" to-layer="3458" to-port="1" />
		<edge from-layer="3458" from-port="2" to-layer="3459" to-port="1" />
		<edge from-layer="3459" from-port="2" to-layer="3462" to-port="0" />
		<edge from-layer="3460" from-port="0" to-layer="3461" to-port="0" />
		<edge from-layer="3461" from-port="1" to-layer="3794" to-port="1" />
		<edge from-layer="3461" from-port="1" to-layer="4026" to-port="1" />
		<edge from-layer="3461" from-port="1" to-layer="3684" to-port="1" />
		<edge from-layer="3461" from-port="1" to-layer="3904" to-port="1" />
		<edge from-layer="3461" from-port="1" to-layer="3574" to-port="1" />
		<edge from-layer="3461" from-port="1" to-layer="3462" to-port="1" />
		<edge from-layer="3462" from-port="2" to-layer="3465" to-port="0" />
		<edge from-layer="3463" from-port="0" to-layer="3464" to-port="0" />
		<edge from-layer="3464" from-port="1" to-layer="3465" to-port="1" />
		<edge from-layer="3465" from-port="2" to-layer="3466" to-port="0" />
		<edge from-layer="3466" from-port="1" to-layer="3469" to-port="0" />
		<edge from-layer="3467" from-port="0" to-layer="3468" to-port="0" />
		<edge from-layer="3468" from-port="1" to-layer="4031" to-port="1" />
		<edge from-layer="3468" from-port="1" to-layer="3909" to-port="1" />
		<edge from-layer="3468" from-port="1" to-layer="3469" to-port="1" />
		<edge from-layer="3468" from-port="1" to-layer="3799" to-port="1" />
		<edge from-layer="3468" from-port="1" to-layer="3579" to-port="1" />
		<edge from-layer="3468" from-port="1" to-layer="3689" to-port="1" />
		<edge from-layer="3469" from-port="2" to-layer="3472" to-port="0" />
		<edge from-layer="3470" from-port="0" to-layer="3471" to-port="0" />
		<edge from-layer="3471" from-port="1" to-layer="3472" to-port="1" />
		<edge from-layer="3472" from-port="2" to-layer="3473" to-port="1" />
		<edge from-layer="3473" from-port="2" to-layer="3479" to-port="0" />
		<edge from-layer="3473" from-port="2" to-layer="3513" to-port="0" />
		<edge from-layer="3473" from-port="2" to-layer="3583" to-port="0" />
		<edge from-layer="3473" from-port="2" to-layer="3529" to-port="2" />
		<edge from-layer="3474" from-port="0" to-layer="3475" to-port="0" />
		<edge from-layer="3475" from-port="1" to-layer="3558" to-port="0" />
		<edge from-layer="3476" from-port="0" to-layer="3477" to-port="0" />
		<edge from-layer="3477" from-port="1" to-layer="3536" to-port="0" />
		<edge from-layer="3478" from-port="0" to-layer="3479" to-port="1" />
		<edge from-layer="3479" from-port="2" to-layer="3481" to-port="0" />
		<edge from-layer="3480" from-port="0" to-layer="3481" to-port="1" />
		<edge from-layer="3481" from-port="2" to-layer="3483" to-port="0" />
		<edge from-layer="3482" from-port="0" to-layer="3483" to-port="1" />
		<edge from-layer="3483" from-port="2" to-layer="3486" to-port="0" />
		<edge from-layer="3484" from-port="0" to-layer="3485" to-port="0" />
		<edge from-layer="3485" from-port="1" to-layer="3486" to-port="1" />
		<edge from-layer="3486" from-port="2" to-layer="3489" to-port="0" />
		<edge from-layer="3487" from-port="0" to-layer="3488" to-port="0" />
		<edge from-layer="3488" from-port="1" to-layer="3489" to-port="1" />
		<edge from-layer="3489" from-port="2" to-layer="3490" to-port="1" />
		<edge from-layer="3490" from-port="2" to-layer="3492" to-port="0" />
		<edge from-layer="3491" from-port="0" to-layer="3492" to-port="1" />
		<edge from-layer="3492" from-port="2" to-layer="3493" to-port="1" />
		<edge from-layer="3493" from-port="2" to-layer="3495" to-port="0" />
		<edge from-layer="3494" from-port="0" to-layer="3495" to-port="1" />
		<edge from-layer="3495" from-port="2" to-layer="3498" to-port="0" />
		<edge from-layer="3496" from-port="0" to-layer="3497" to-port="0" />
		<edge from-layer="3497" from-port="1" to-layer="3498" to-port="1" />
		<edge from-layer="3498" from-port="2" to-layer="3500" to-port="0" />
		<edge from-layer="3499" from-port="0" to-layer="3500" to-port="1" />
		<edge from-layer="3500" from-port="2" to-layer="3502" to-port="0" />
		<edge from-layer="3501" from-port="0" to-layer="3502" to-port="1" />
		<edge from-layer="3502" from-port="2" to-layer="3503" to-port="0" />
		<edge from-layer="3503" from-port="2" to-layer="3506" to-port="0" />
		<edge from-layer="3504" from-port="0" to-layer="3505" to-port="0" />
		<edge from-layer="3505" from-port="1" to-layer="3506" to-port="1" />
		<edge from-layer="3506" from-port="2" to-layer="3507" to-port="0" />
		<edge from-layer="3507" from-port="1" to-layer="3508" to-port="0" />
		<edge from-layer="3508" from-port="2" to-layer="3511" to-port="0" />
		<edge from-layer="3509" from-port="0" to-layer="3510" to-port="0" />
		<edge from-layer="3510" from-port="1" to-layer="3511" to-port="1" />
		<edge from-layer="3511" from-port="2" to-layer="3512" to-port="0" />
		<edge from-layer="3512" from-port="1" to-layer="3523" to-port="0" />
		<edge from-layer="3513" from-port="2" to-layer="3516" to-port="0" />
		<edge from-layer="3514" from-port="0" to-layer="3515" to-port="0" />
		<edge from-layer="3515" from-port="1" to-layer="3516" to-port="1" />
		<edge from-layer="3516" from-port="2" to-layer="3517" to-port="0" />
		<edge from-layer="3517" from-port="1" to-layer="3518" to-port="0" />
		<edge from-layer="3518" from-port="2" to-layer="3521" to-port="0" />
		<edge from-layer="3519" from-port="0" to-layer="3520" to-port="0" />
		<edge from-layer="3520" from-port="1" to-layer="3521" to-port="1" />
		<edge from-layer="3521" from-port="2" to-layer="3522" to-port="0" />
		<edge from-layer="3522" from-port="1" to-layer="3523" to-port="1" />
		<edge from-layer="3523" from-port="2" to-layer="3524" to-port="0" />
		<edge from-layer="3524" from-port="2" to-layer="3527" to-port="0" />
		<edge from-layer="3525" from-port="0" to-layer="3526" to-port="0" />
		<edge from-layer="3526" from-port="1" to-layer="3527" to-port="1" />
		<edge from-layer="3527" from-port="2" to-layer="3528" to-port="0" />
		<edge from-layer="3528" from-port="1" to-layer="3529" to-port="1" />
		<edge from-layer="3529" from-port="3" to-layer="3552" to-port="1" />
		<edge from-layer="3529" from-port="3" to-layer="3544" to-port="1" />
		<edge from-layer="3529" from-port="3" to-layer="3530" to-port="1" />
		<edge from-layer="3529" from-port="3" to-layer="3566" to-port="1" />
		<edge from-layer="3530" from-port="2" to-layer="3538" to-port="0" />
		<edge from-layer="3530" from-port="2" to-layer="3531" to-port="0" />
		<edge from-layer="3531" from-port="2" to-layer="3534" to-port="0" />
		<edge from-layer="3532" from-port="0" to-layer="3533" to-port="0" />
		<edge from-layer="3533" from-port="1" to-layer="3534" to-port="1" />
		<edge from-layer="3534" from-port="2" to-layer="3535" to-port="0" />
		<edge from-layer="3535" from-port="1" to-layer="3536" to-port="1" />
		<edge from-layer="3535" from-port="1" to-layer="3550" to-port="0" />
		<edge from-layer="3536" from-port="2" to-layer="3537" to-port="0" />
		<edge from-layer="3537" from-port="2" to-layer="3551" to-port="0" />
		<edge from-layer="3538" from-port="2" to-layer="3541" to-port="0" />
		<edge from-layer="3539" from-port="0" to-layer="3540" to-port="0" />
		<edge from-layer="3540" from-port="1" to-layer="3541" to-port="1" />
		<edge from-layer="3541" from-port="2" to-layer="3542" to-port="0" />
		<edge from-layer="3542" from-port="1" to-layer="3543" to-port="0" />
		<edge from-layer="3543" from-port="2" to-layer="3544" to-port="0" />
		<edge from-layer="3544" from-port="2" to-layer="3545" to-port="0" />
		<edge from-layer="3545" from-port="2" to-layer="3548" to-port="0" />
		<edge from-layer="3546" from-port="0" to-layer="3547" to-port="0" />
		<edge from-layer="3547" from-port="1" to-layer="3548" to-port="1" />
		<edge from-layer="3548" from-port="2" to-layer="3549" to-port="0" />
		<edge from-layer="3549" from-port="1" to-layer="3550" to-port="1" />
		<edge from-layer="3550" from-port="2" to-layer="3551" to-port="1" />
		<edge from-layer="3551" from-port="2" to-layer="3552" to-port="0" />
		<edge from-layer="3551" from-port="2" to-layer="3559" to-port="1" />
		<edge from-layer="3551" from-port="2" to-layer="3565" to-port="1" />
		<edge from-layer="3552" from-port="2" to-layer="3553" to-port="0" />
		<edge from-layer="3552" from-port="2" to-layer="3560" to-port="0" />
		<edge from-layer="3553" from-port="2" to-layer="3556" to-port="0" />
		<edge from-layer="3554" from-port="0" to-layer="3555" to-port="0" />
		<edge from-layer="3555" from-port="1" to-layer="3556" to-port="1" />
		<edge from-layer="3556" from-port="2" to-layer="3557" to-port="0" />
		<edge from-layer="3557" from-port="1" to-layer="3558" to-port="1" />
		<edge from-layer="3557" from-port="1" to-layer="3572" to-port="0" />
		<edge from-layer="3558" from-port="2" to-layer="3559" to-port="0" />
		<edge from-layer="3559" from-port="2" to-layer="3573" to-port="0" />
		<edge from-layer="3560" from-port="2" to-layer="3563" to-port="0" />
		<edge from-layer="3561" from-port="0" to-layer="3562" to-port="0" />
		<edge from-layer="3562" from-port="1" to-layer="3563" to-port="1" />
		<edge from-layer="3563" from-port="2" to-layer="3564" to-port="0" />
		<edge from-layer="3564" from-port="1" to-layer="3565" to-port="0" />
		<edge from-layer="3565" from-port="2" to-layer="3566" to-port="0" />
		<edge from-layer="3566" from-port="2" to-layer="3567" to-port="0" />
		<edge from-layer="3567" from-port="2" to-layer="3570" to-port="0" />
		<edge from-layer="3568" from-port="0" to-layer="3569" to-port="0" />
		<edge from-layer="3569" from-port="1" to-layer="3570" to-port="1" />
		<edge from-layer="3570" from-port="2" to-layer="3571" to-port="0" />
		<edge from-layer="3571" from-port="1" to-layer="3572" to-port="1" />
		<edge from-layer="3572" from-port="2" to-layer="3573" to-port="1" />
		<edge from-layer="3573" from-port="2" to-layer="3574" to-port="0" />
		<edge from-layer="3574" from-port="2" to-layer="3577" to-port="0" />
		<edge from-layer="3575" from-port="0" to-layer="3576" to-port="0" />
		<edge from-layer="3576" from-port="1" to-layer="3577" to-port="1" />
		<edge from-layer="3577" from-port="2" to-layer="3578" to-port="0" />
		<edge from-layer="3578" from-port="1" to-layer="3579" to-port="0" />
		<edge from-layer="3579" from-port="2" to-layer="3582" to-port="0" />
		<edge from-layer="3580" from-port="0" to-layer="3581" to-port="0" />
		<edge from-layer="3581" from-port="1" to-layer="3582" to-port="1" />
		<edge from-layer="3582" from-port="2" to-layer="3583" to-port="1" />
		<edge from-layer="3583" from-port="2" to-layer="3693" to-port="0" />
		<edge from-layer="3583" from-port="2" to-layer="3639" to-port="2" />
		<edge from-layer="3583" from-port="2" to-layer="3589" to-port="0" />
		<edge from-layer="3583" from-port="2" to-layer="3623" to-port="0" />
		<edge from-layer="3584" from-port="0" to-layer="3585" to-port="0" />
		<edge from-layer="3585" from-port="1" to-layer="3668" to-port="0" />
		<edge from-layer="3586" from-port="0" to-layer="3587" to-port="0" />
		<edge from-layer="3587" from-port="1" to-layer="3646" to-port="0" />
		<edge from-layer="3588" from-port="0" to-layer="3589" to-port="1" />
		<edge from-layer="3589" from-port="2" to-layer="3591" to-port="0" />
		<edge from-layer="3590" from-port="0" to-layer="3591" to-port="1" />
		<edge from-layer="3591" from-port="2" to-layer="3593" to-port="0" />
		<edge from-layer="3592" from-port="0" to-layer="3593" to-port="1" />
		<edge from-layer="3593" from-port="2" to-layer="3596" to-port="0" />
		<edge from-layer="3594" from-port="0" to-layer="3595" to-port="0" />
		<edge from-layer="3595" from-port="1" to-layer="3596" to-port="1" />
		<edge from-layer="3596" from-port="2" to-layer="3599" to-port="0" />
		<edge from-layer="3597" from-port="0" to-layer="3598" to-port="0" />
		<edge from-layer="3598" from-port="1" to-layer="3599" to-port="1" />
		<edge from-layer="3599" from-port="2" to-layer="3600" to-port="1" />
		<edge from-layer="3600" from-port="2" to-layer="3602" to-port="0" />
		<edge from-layer="3601" from-port="0" to-layer="3602" to-port="1" />
		<edge from-layer="3602" from-port="2" to-layer="3603" to-port="1" />
		<edge from-layer="3603" from-port="2" to-layer="3605" to-port="0" />
		<edge from-layer="3604" from-port="0" to-layer="3605" to-port="1" />
		<edge from-layer="3605" from-port="2" to-layer="3608" to-port="0" />
		<edge from-layer="3606" from-port="0" to-layer="3607" to-port="0" />
		<edge from-layer="3607" from-port="1" to-layer="3608" to-port="1" />
		<edge from-layer="3608" from-port="2" to-layer="3610" to-port="0" />
		<edge from-layer="3609" from-port="0" to-layer="3610" to-port="1" />
		<edge from-layer="3610" from-port="2" to-layer="3612" to-port="0" />
		<edge from-layer="3611" from-port="0" to-layer="3612" to-port="1" />
		<edge from-layer="3612" from-port="2" to-layer="3613" to-port="0" />
		<edge from-layer="3613" from-port="2" to-layer="3616" to-port="0" />
		<edge from-layer="3614" from-port="0" to-layer="3615" to-port="0" />
		<edge from-layer="3615" from-port="1" to-layer="3616" to-port="1" />
		<edge from-layer="3616" from-port="2" to-layer="3617" to-port="0" />
		<edge from-layer="3617" from-port="1" to-layer="3618" to-port="0" />
		<edge from-layer="3618" from-port="2" to-layer="3621" to-port="0" />
		<edge from-layer="3619" from-port="0" to-layer="3620" to-port="0" />
		<edge from-layer="3620" from-port="1" to-layer="3621" to-port="1" />
		<edge from-layer="3621" from-port="2" to-layer="3622" to-port="0" />
		<edge from-layer="3622" from-port="1" to-layer="3633" to-port="0" />
		<edge from-layer="3623" from-port="2" to-layer="3626" to-port="0" />
		<edge from-layer="3624" from-port="0" to-layer="3625" to-port="0" />
		<edge from-layer="3625" from-port="1" to-layer="3626" to-port="1" />
		<edge from-layer="3626" from-port="2" to-layer="3627" to-port="0" />
		<edge from-layer="3627" from-port="1" to-layer="3628" to-port="0" />
		<edge from-layer="3628" from-port="2" to-layer="3631" to-port="0" />
		<edge from-layer="3629" from-port="0" to-layer="3630" to-port="0" />
		<edge from-layer="3630" from-port="1" to-layer="3631" to-port="1" />
		<edge from-layer="3631" from-port="2" to-layer="3632" to-port="0" />
		<edge from-layer="3632" from-port="1" to-layer="3633" to-port="1" />
		<edge from-layer="3633" from-port="2" to-layer="3634" to-port="0" />
		<edge from-layer="3634" from-port="2" to-layer="3637" to-port="0" />
		<edge from-layer="3635" from-port="0" to-layer="3636" to-port="0" />
		<edge from-layer="3636" from-port="1" to-layer="3637" to-port="1" />
		<edge from-layer="3637" from-port="2" to-layer="3638" to-port="0" />
		<edge from-layer="3638" from-port="1" to-layer="3639" to-port="1" />
		<edge from-layer="3639" from-port="3" to-layer="3676" to-port="1" />
		<edge from-layer="3639" from-port="3" to-layer="3640" to-port="1" />
		<edge from-layer="3639" from-port="3" to-layer="3654" to-port="1" />
		<edge from-layer="3639" from-port="3" to-layer="3662" to-port="1" />
		<edge from-layer="3640" from-port="2" to-layer="3641" to-port="0" />
		<edge from-layer="3640" from-port="2" to-layer="3648" to-port="0" />
		<edge from-layer="3641" from-port="2" to-layer="3644" to-port="0" />
		<edge from-layer="3642" from-port="0" to-layer="3643" to-port="0" />
		<edge from-layer="3643" from-port="1" to-layer="3644" to-port="1" />
		<edge from-layer="3644" from-port="2" to-layer="3645" to-port="0" />
		<edge from-layer="3645" from-port="1" to-layer="3646" to-port="1" />
		<edge from-layer="3645" from-port="1" to-layer="3660" to-port="0" />
		<edge from-layer="3646" from-port="2" to-layer="3647" to-port="0" />
		<edge from-layer="3647" from-port="2" to-layer="3661" to-port="0" />
		<edge from-layer="3648" from-port="2" to-layer="3651" to-port="0" />
		<edge from-layer="3649" from-port="0" to-layer="3650" to-port="0" />
		<edge from-layer="3650" from-port="1" to-layer="3651" to-port="1" />
		<edge from-layer="3651" from-port="2" to-layer="3652" to-port="0" />
		<edge from-layer="3652" from-port="1" to-layer="3653" to-port="0" />
		<edge from-layer="3653" from-port="2" to-layer="3654" to-port="0" />
		<edge from-layer="3654" from-port="2" to-layer="3655" to-port="0" />
		<edge from-layer="3655" from-port="2" to-layer="3658" to-port="0" />
		<edge from-layer="3656" from-port="0" to-layer="3657" to-port="0" />
		<edge from-layer="3657" from-port="1" to-layer="3658" to-port="1" />
		<edge from-layer="3658" from-port="2" to-layer="3659" to-port="0" />
		<edge from-layer="3659" from-port="1" to-layer="3660" to-port="1" />
		<edge from-layer="3660" from-port="2" to-layer="3661" to-port="1" />
		<edge from-layer="3661" from-port="2" to-layer="3669" to-port="1" />
		<edge from-layer="3661" from-port="2" to-layer="3662" to-port="0" />
		<edge from-layer="3661" from-port="2" to-layer="3675" to-port="1" />
		<edge from-layer="3662" from-port="2" to-layer="3663" to-port="0" />
		<edge from-layer="3662" from-port="2" to-layer="3670" to-port="0" />
		<edge from-layer="3663" from-port="2" to-layer="3666" to-port="0" />
		<edge from-layer="3664" from-port="0" to-layer="3665" to-port="0" />
		<edge from-layer="3665" from-port="1" to-layer="3666" to-port="1" />
		<edge from-layer="3666" from-port="2" to-layer="3667" to-port="0" />
		<edge from-layer="3667" from-port="1" to-layer="3668" to-port="1" />
		<edge from-layer="3667" from-port="1" to-layer="3682" to-port="0" />
		<edge from-layer="3668" from-port="2" to-layer="3669" to-port="0" />
		<edge from-layer="3669" from-port="2" to-layer="3683" to-port="0" />
		<edge from-layer="3670" from-port="2" to-layer="3673" to-port="0" />
		<edge from-layer="3671" from-port="0" to-layer="3672" to-port="0" />
		<edge from-layer="3672" from-port="1" to-layer="3673" to-port="1" />
		<edge from-layer="3673" from-port="2" to-layer="3674" to-port="0" />
		<edge from-layer="3674" from-port="1" to-layer="3675" to-port="0" />
		<edge from-layer="3675" from-port="2" to-layer="3676" to-port="0" />
		<edge from-layer="3676" from-port="2" to-layer="3677" to-port="0" />
		<edge from-layer="3677" from-port="2" to-layer="3680" to-port="0" />
		<edge from-layer="3678" from-port="0" to-layer="3679" to-port="0" />
		<edge from-layer="3679" from-port="1" to-layer="3680" to-port="1" />
		<edge from-layer="3680" from-port="2" to-layer="3681" to-port="0" />
		<edge from-layer="3681" from-port="1" to-layer="3682" to-port="1" />
		<edge from-layer="3682" from-port="2" to-layer="3683" to-port="1" />
		<edge from-layer="3683" from-port="2" to-layer="3684" to-port="0" />
		<edge from-layer="3684" from-port="2" to-layer="3687" to-port="0" />
		<edge from-layer="3685" from-port="0" to-layer="3686" to-port="0" />
		<edge from-layer="3686" from-port="1" to-layer="3687" to-port="1" />
		<edge from-layer="3687" from-port="2" to-layer="3688" to-port="0" />
		<edge from-layer="3688" from-port="1" to-layer="3689" to-port="0" />
		<edge from-layer="3689" from-port="2" to-layer="3692" to-port="0" />
		<edge from-layer="3690" from-port="0" to-layer="3691" to-port="0" />
		<edge from-layer="3691" from-port="1" to-layer="3692" to-port="1" />
		<edge from-layer="3692" from-port="2" to-layer="3693" to-port="1" />
		<edge from-layer="3693" from-port="2" to-layer="3803" to-port="0" />
		<edge from-layer="3693" from-port="2" to-layer="3749" to-port="2" />
		<edge from-layer="3693" from-port="2" to-layer="3699" to-port="0" />
		<edge from-layer="3693" from-port="2" to-layer="3733" to-port="0" />
		<edge from-layer="3694" from-port="0" to-layer="3695" to-port="0" />
		<edge from-layer="3695" from-port="1" to-layer="3778" to-port="0" />
		<edge from-layer="3696" from-port="0" to-layer="3697" to-port="0" />
		<edge from-layer="3697" from-port="1" to-layer="3756" to-port="0" />
		<edge from-layer="3698" from-port="0" to-layer="3699" to-port="1" />
		<edge from-layer="3699" from-port="2" to-layer="3701" to-port="0" />
		<edge from-layer="3700" from-port="0" to-layer="3701" to-port="1" />
		<edge from-layer="3701" from-port="2" to-layer="3703" to-port="0" />
		<edge from-layer="3702" from-port="0" to-layer="3703" to-port="1" />
		<edge from-layer="3703" from-port="2" to-layer="3706" to-port="0" />
		<edge from-layer="3704" from-port="0" to-layer="3705" to-port="0" />
		<edge from-layer="3705" from-port="1" to-layer="3706" to-port="1" />
		<edge from-layer="3706" from-port="2" to-layer="3709" to-port="0" />
		<edge from-layer="3707" from-port="0" to-layer="3708" to-port="0" />
		<edge from-layer="3708" from-port="1" to-layer="3709" to-port="1" />
		<edge from-layer="3709" from-port="2" to-layer="3710" to-port="1" />
		<edge from-layer="3710" from-port="2" to-layer="3712" to-port="0" />
		<edge from-layer="3711" from-port="0" to-layer="3712" to-port="1" />
		<edge from-layer="3712" from-port="2" to-layer="3713" to-port="1" />
		<edge from-layer="3713" from-port="2" to-layer="3715" to-port="0" />
		<edge from-layer="3714" from-port="0" to-layer="3715" to-port="1" />
		<edge from-layer="3715" from-port="2" to-layer="3718" to-port="0" />
		<edge from-layer="3716" from-port="0" to-layer="3717" to-port="0" />
		<edge from-layer="3717" from-port="1" to-layer="3718" to-port="1" />
		<edge from-layer="3718" from-port="2" to-layer="3720" to-port="0" />
		<edge from-layer="3719" from-port="0" to-layer="3720" to-port="1" />
		<edge from-layer="3720" from-port="2" to-layer="3722" to-port="0" />
		<edge from-layer="3721" from-port="0" to-layer="3722" to-port="1" />
		<edge from-layer="3722" from-port="2" to-layer="3723" to-port="0" />
		<edge from-layer="3723" from-port="2" to-layer="3726" to-port="0" />
		<edge from-layer="3724" from-port="0" to-layer="3725" to-port="0" />
		<edge from-layer="3725" from-port="1" to-layer="3726" to-port="1" />
		<edge from-layer="3726" from-port="2" to-layer="3727" to-port="0" />
		<edge from-layer="3727" from-port="1" to-layer="3728" to-port="0" />
		<edge from-layer="3728" from-port="2" to-layer="3731" to-port="0" />
		<edge from-layer="3729" from-port="0" to-layer="3730" to-port="0" />
		<edge from-layer="3730" from-port="1" to-layer="3731" to-port="1" />
		<edge from-layer="3731" from-port="2" to-layer="3732" to-port="0" />
		<edge from-layer="3732" from-port="1" to-layer="3743" to-port="0" />
		<edge from-layer="3733" from-port="2" to-layer="3736" to-port="0" />
		<edge from-layer="3734" from-port="0" to-layer="3735" to-port="0" />
		<edge from-layer="3735" from-port="1" to-layer="3736" to-port="1" />
		<edge from-layer="3736" from-port="2" to-layer="3737" to-port="0" />
		<edge from-layer="3737" from-port="1" to-layer="3738" to-port="0" />
		<edge from-layer="3738" from-port="2" to-layer="3741" to-port="0" />
		<edge from-layer="3739" from-port="0" to-layer="3740" to-port="0" />
		<edge from-layer="3740" from-port="1" to-layer="3741" to-port="1" />
		<edge from-layer="3741" from-port="2" to-layer="3742" to-port="0" />
		<edge from-layer="3742" from-port="1" to-layer="3743" to-port="1" />
		<edge from-layer="3743" from-port="2" to-layer="3744" to-port="0" />
		<edge from-layer="3744" from-port="2" to-layer="3747" to-port="0" />
		<edge from-layer="3745" from-port="0" to-layer="3746" to-port="0" />
		<edge from-layer="3746" from-port="1" to-layer="3747" to-port="1" />
		<edge from-layer="3747" from-port="2" to-layer="3748" to-port="0" />
		<edge from-layer="3748" from-port="1" to-layer="3749" to-port="1" />
		<edge from-layer="3749" from-port="3" to-layer="3786" to-port="1" />
		<edge from-layer="3749" from-port="3" to-layer="3750" to-port="1" />
		<edge from-layer="3749" from-port="3" to-layer="3764" to-port="1" />
		<edge from-layer="3749" from-port="3" to-layer="3772" to-port="1" />
		<edge from-layer="3750" from-port="2" to-layer="3758" to-port="0" />
		<edge from-layer="3750" from-port="2" to-layer="3751" to-port="0" />
		<edge from-layer="3751" from-port="2" to-layer="3754" to-port="0" />
		<edge from-layer="3752" from-port="0" to-layer="3753" to-port="0" />
		<edge from-layer="3753" from-port="1" to-layer="3754" to-port="1" />
		<edge from-layer="3754" from-port="2" to-layer="3755" to-port="0" />
		<edge from-layer="3755" from-port="1" to-layer="3770" to-port="0" />
		<edge from-layer="3755" from-port="1" to-layer="3756" to-port="1" />
		<edge from-layer="3756" from-port="2" to-layer="3757" to-port="0" />
		<edge from-layer="3757" from-port="2" to-layer="3771" to-port="0" />
		<edge from-layer="3758" from-port="2" to-layer="3761" to-port="0" />
		<edge from-layer="3759" from-port="0" to-layer="3760" to-port="0" />
		<edge from-layer="3760" from-port="1" to-layer="3761" to-port="1" />
		<edge from-layer="3761" from-port="2" to-layer="3762" to-port="0" />
		<edge from-layer="3762" from-port="1" to-layer="3763" to-port="0" />
		<edge from-layer="3763" from-port="2" to-layer="3764" to-port="0" />
		<edge from-layer="3764" from-port="2" to-layer="3765" to-port="0" />
		<edge from-layer="3765" from-port="2" to-layer="3768" to-port="0" />
		<edge from-layer="3766" from-port="0" to-layer="3767" to-port="0" />
		<edge from-layer="3767" from-port="1" to-layer="3768" to-port="1" />
		<edge from-layer="3768" from-port="2" to-layer="3769" to-port="0" />
		<edge from-layer="3769" from-port="1" to-layer="3770" to-port="1" />
		<edge from-layer="3770" from-port="2" to-layer="3771" to-port="1" />
		<edge from-layer="3771" from-port="2" to-layer="3779" to-port="1" />
		<edge from-layer="3771" from-port="2" to-layer="3785" to-port="1" />
		<edge from-layer="3771" from-port="2" to-layer="3772" to-port="0" />
		<edge from-layer="3772" from-port="2" to-layer="3780" to-port="0" />
		<edge from-layer="3772" from-port="2" to-layer="3773" to-port="0" />
		<edge from-layer="3773" from-port="2" to-layer="3776" to-port="0" />
		<edge from-layer="3774" from-port="0" to-layer="3775" to-port="0" />
		<edge from-layer="3775" from-port="1" to-layer="3776" to-port="1" />
		<edge from-layer="3776" from-port="2" to-layer="3777" to-port="0" />
		<edge from-layer="3777" from-port="1" to-layer="3778" to-port="1" />
		<edge from-layer="3777" from-port="1" to-layer="3792" to-port="0" />
		<edge from-layer="3778" from-port="2" to-layer="3779" to-port="0" />
		<edge from-layer="3779" from-port="2" to-layer="3793" to-port="0" />
		<edge from-layer="3780" from-port="2" to-layer="3783" to-port="0" />
		<edge from-layer="3781" from-port="0" to-layer="3782" to-port="0" />
		<edge from-layer="3782" from-port="1" to-layer="3783" to-port="1" />
		<edge from-layer="3783" from-port="2" to-layer="3784" to-port="0" />
		<edge from-layer="3784" from-port="1" to-layer="3785" to-port="0" />
		<edge from-layer="3785" from-port="2" to-layer="3786" to-port="0" />
		<edge from-layer="3786" from-port="2" to-layer="3787" to-port="0" />
		<edge from-layer="3787" from-port="2" to-layer="3790" to-port="0" />
		<edge from-layer="3788" from-port="0" to-layer="3789" to-port="0" />
		<edge from-layer="3789" from-port="1" to-layer="3790" to-port="1" />
		<edge from-layer="3790" from-port="2" to-layer="3791" to-port="0" />
		<edge from-layer="3791" from-port="1" to-layer="3792" to-port="1" />
		<edge from-layer="3792" from-port="2" to-layer="3793" to-port="1" />
		<edge from-layer="3793" from-port="2" to-layer="3794" to-port="0" />
		<edge from-layer="3794" from-port="2" to-layer="3797" to-port="0" />
		<edge from-layer="3795" from-port="0" to-layer="3796" to-port="0" />
		<edge from-layer="3796" from-port="1" to-layer="3797" to-port="1" />
		<edge from-layer="3797" from-port="2" to-layer="3798" to-port="0" />
		<edge from-layer="3798" from-port="1" to-layer="3799" to-port="0" />
		<edge from-layer="3799" from-port="2" to-layer="3802" to-port="0" />
		<edge from-layer="3800" from-port="0" to-layer="3801" to-port="0" />
		<edge from-layer="3801" from-port="1" to-layer="3802" to-port="1" />
		<edge from-layer="3802" from-port="2" to-layer="3803" to-port="1" />
		<edge from-layer="3803" from-port="2" to-layer="3859" to-port="2" />
		<edge from-layer="3803" from-port="2" to-layer="3843" to-port="0" />
		<edge from-layer="3803" from-port="2" to-layer="3809" to-port="0" />
		<edge from-layer="3803" from-port="2" to-layer="3913" to-port="0" />
		<edge from-layer="3804" from-port="0" to-layer="3805" to-port="0" />
		<edge from-layer="3805" from-port="1" to-layer="3888" to-port="0" />
		<edge from-layer="3806" from-port="0" to-layer="3807" to-port="0" />
		<edge from-layer="3807" from-port="1" to-layer="3866" to-port="0" />
		<edge from-layer="3808" from-port="0" to-layer="3809" to-port="1" />
		<edge from-layer="3809" from-port="2" to-layer="3811" to-port="0" />
		<edge from-layer="3810" from-port="0" to-layer="3811" to-port="1" />
		<edge from-layer="3811" from-port="2" to-layer="3813" to-port="0" />
		<edge from-layer="3812" from-port="0" to-layer="3813" to-port="1" />
		<edge from-layer="3813" from-port="2" to-layer="3816" to-port="0" />
		<edge from-layer="3814" from-port="0" to-layer="3815" to-port="0" />
		<edge from-layer="3815" from-port="1" to-layer="3816" to-port="1" />
		<edge from-layer="3816" from-port="2" to-layer="3819" to-port="0" />
		<edge from-layer="3817" from-port="0" to-layer="3818" to-port="0" />
		<edge from-layer="3818" from-port="1" to-layer="3819" to-port="1" />
		<edge from-layer="3819" from-port="2" to-layer="3820" to-port="1" />
		<edge from-layer="3820" from-port="2" to-layer="3822" to-port="0" />
		<edge from-layer="3821" from-port="0" to-layer="3822" to-port="1" />
		<edge from-layer="3822" from-port="2" to-layer="3823" to-port="1" />
		<edge from-layer="3823" from-port="2" to-layer="3825" to-port="0" />
		<edge from-layer="3824" from-port="0" to-layer="3825" to-port="1" />
		<edge from-layer="3825" from-port="2" to-layer="3828" to-port="0" />
		<edge from-layer="3826" from-port="0" to-layer="3827" to-port="0" />
		<edge from-layer="3827" from-port="1" to-layer="3828" to-port="1" />
		<edge from-layer="3828" from-port="2" to-layer="3830" to-port="0" />
		<edge from-layer="3829" from-port="0" to-layer="3830" to-port="1" />
		<edge from-layer="3830" from-port="2" to-layer="3832" to-port="0" />
		<edge from-layer="3831" from-port="0" to-layer="3832" to-port="1" />
		<edge from-layer="3832" from-port="2" to-layer="3833" to-port="0" />
		<edge from-layer="3833" from-port="2" to-layer="3836" to-port="0" />
		<edge from-layer="3834" from-port="0" to-layer="3835" to-port="0" />
		<edge from-layer="3835" from-port="1" to-layer="3836" to-port="1" />
		<edge from-layer="3836" from-port="2" to-layer="3837" to-port="0" />
		<edge from-layer="3837" from-port="1" to-layer="3838" to-port="0" />
		<edge from-layer="3838" from-port="2" to-layer="3841" to-port="0" />
		<edge from-layer="3839" from-port="0" to-layer="3840" to-port="0" />
		<edge from-layer="3840" from-port="1" to-layer="3841" to-port="1" />
		<edge from-layer="3841" from-port="2" to-layer="3842" to-port="0" />
		<edge from-layer="3842" from-port="1" to-layer="3853" to-port="0" />
		<edge from-layer="3843" from-port="2" to-layer="3846" to-port="0" />
		<edge from-layer="3844" from-port="0" to-layer="3845" to-port="0" />
		<edge from-layer="3845" from-port="1" to-layer="3846" to-port="1" />
		<edge from-layer="3846" from-port="2" to-layer="3847" to-port="0" />
		<edge from-layer="3847" from-port="1" to-layer="3848" to-port="0" />
		<edge from-layer="3848" from-port="2" to-layer="3851" to-port="0" />
		<edge from-layer="3849" from-port="0" to-layer="3850" to-port="0" />
		<edge from-layer="3850" from-port="1" to-layer="3851" to-port="1" />
		<edge from-layer="3851" from-port="2" to-layer="3852" to-port="0" />
		<edge from-layer="3852" from-port="1" to-layer="3853" to-port="1" />
		<edge from-layer="3853" from-port="2" to-layer="3854" to-port="0" />
		<edge from-layer="3854" from-port="2" to-layer="3857" to-port="0" />
		<edge from-layer="3855" from-port="0" to-layer="3856" to-port="0" />
		<edge from-layer="3856" from-port="1" to-layer="3857" to-port="1" />
		<edge from-layer="3857" from-port="2" to-layer="3858" to-port="0" />
		<edge from-layer="3858" from-port="1" to-layer="3859" to-port="1" />
		<edge from-layer="3859" from-port="3" to-layer="3860" to-port="1" />
		<edge from-layer="3859" from-port="3" to-layer="3882" to-port="1" />
		<edge from-layer="3859" from-port="3" to-layer="3874" to-port="1" />
		<edge from-layer="3859" from-port="3" to-layer="3896" to-port="1" />
		<edge from-layer="3860" from-port="2" to-layer="3861" to-port="0" />
		<edge from-layer="3860" from-port="2" to-layer="3868" to-port="0" />
		<edge from-layer="3861" from-port="2" to-layer="3864" to-port="0" />
		<edge from-layer="3862" from-port="0" to-layer="3863" to-port="0" />
		<edge from-layer="3863" from-port="1" to-layer="3864" to-port="1" />
		<edge from-layer="3864" from-port="2" to-layer="3865" to-port="0" />
		<edge from-layer="3865" from-port="1" to-layer="3866" to-port="1" />
		<edge from-layer="3865" from-port="1" to-layer="3880" to-port="0" />
		<edge from-layer="3866" from-port="2" to-layer="3867" to-port="0" />
		<edge from-layer="3867" from-port="2" to-layer="3881" to-port="0" />
		<edge from-layer="3868" from-port="2" to-layer="3871" to-port="0" />
		<edge from-layer="3869" from-port="0" to-layer="3870" to-port="0" />
		<edge from-layer="3870" from-port="1" to-layer="3871" to-port="1" />
		<edge from-layer="3871" from-port="2" to-layer="3872" to-port="0" />
		<edge from-layer="3872" from-port="1" to-layer="3873" to-port="0" />
		<edge from-layer="3873" from-port="2" to-layer="3874" to-port="0" />
		<edge from-layer="3874" from-port="2" to-layer="3875" to-port="0" />
		<edge from-layer="3875" from-port="2" to-layer="3878" to-port="0" />
		<edge from-layer="3876" from-port="0" to-layer="3877" to-port="0" />
		<edge from-layer="3877" from-port="1" to-layer="3878" to-port="1" />
		<edge from-layer="3878" from-port="2" to-layer="3879" to-port="0" />
		<edge from-layer="3879" from-port="1" to-layer="3880" to-port="1" />
		<edge from-layer="3880" from-port="2" to-layer="3881" to-port="1" />
		<edge from-layer="3881" from-port="2" to-layer="3895" to-port="1" />
		<edge from-layer="3881" from-port="2" to-layer="3882" to-port="0" />
		<edge from-layer="3881" from-port="2" to-layer="3889" to-port="1" />
		<edge from-layer="3882" from-port="2" to-layer="3883" to-port="0" />
		<edge from-layer="3882" from-port="2" to-layer="3890" to-port="0" />
		<edge from-layer="3883" from-port="2" to-layer="3886" to-port="0" />
		<edge from-layer="3884" from-port="0" to-layer="3885" to-port="0" />
		<edge from-layer="3885" from-port="1" to-layer="3886" to-port="1" />
		<edge from-layer="3886" from-port="2" to-layer="3887" to-port="0" />
		<edge from-layer="3887" from-port="1" to-layer="3888" to-port="1" />
		<edge from-layer="3887" from-port="1" to-layer="3902" to-port="0" />
		<edge from-layer="3888" from-port="2" to-layer="3889" to-port="0" />
		<edge from-layer="3889" from-port="2" to-layer="3903" to-port="0" />
		<edge from-layer="3890" from-port="2" to-layer="3893" to-port="0" />
		<edge from-layer="3891" from-port="0" to-layer="3892" to-port="0" />
		<edge from-layer="3892" from-port="1" to-layer="3893" to-port="1" />
		<edge from-layer="3893" from-port="2" to-layer="3894" to-port="0" />
		<edge from-layer="3894" from-port="1" to-layer="3895" to-port="0" />
		<edge from-layer="3895" from-port="2" to-layer="3896" to-port="0" />
		<edge from-layer="3896" from-port="2" to-layer="3897" to-port="0" />
		<edge from-layer="3897" from-port="2" to-layer="3900" to-port="0" />
		<edge from-layer="3898" from-port="0" to-layer="3899" to-port="0" />
		<edge from-layer="3899" from-port="1" to-layer="3900" to-port="1" />
		<edge from-layer="3900" from-port="2" to-layer="3901" to-port="0" />
		<edge from-layer="3901" from-port="1" to-layer="3902" to-port="1" />
		<edge from-layer="3902" from-port="2" to-layer="3903" to-port="1" />
		<edge from-layer="3903" from-port="2" to-layer="3904" to-port="0" />
		<edge from-layer="3904" from-port="2" to-layer="3907" to-port="0" />
		<edge from-layer="3905" from-port="0" to-layer="3906" to-port="0" />
		<edge from-layer="3906" from-port="1" to-layer="3907" to-port="1" />
		<edge from-layer="3907" from-port="2" to-layer="3908" to-port="0" />
		<edge from-layer="3908" from-port="1" to-layer="3909" to-port="0" />
		<edge from-layer="3909" from-port="2" to-layer="3912" to-port="0" />
		<edge from-layer="3910" from-port="0" to-layer="3911" to-port="0" />
		<edge from-layer="3911" from-port="1" to-layer="3912" to-port="1" />
		<edge from-layer="3912" from-port="2" to-layer="3913" to-port="1" />
		<edge from-layer="3913" from-port="2" to-layer="3965" to-port="2" />
		<edge from-layer="3913" from-port="2" to-layer="4035" to-port="0" />
		<edge from-layer="3913" from-port="2" to-layer="3949" to-port="0" />
		<edge from-layer="3913" from-port="2" to-layer="3915" to-port="0" />
		<edge from-layer="3914" from-port="0" to-layer="3915" to-port="1" />
		<edge from-layer="3915" from-port="2" to-layer="3917" to-port="0" />
		<edge from-layer="3916" from-port="0" to-layer="3917" to-port="1" />
		<edge from-layer="3917" from-port="2" to-layer="3919" to-port="0" />
		<edge from-layer="3918" from-port="0" to-layer="3919" to-port="1" />
		<edge from-layer="3919" from-port="2" to-layer="3922" to-port="0" />
		<edge from-layer="3920" from-port="0" to-layer="3921" to-port="0" />
		<edge from-layer="3921" from-port="1" to-layer="3922" to-port="1" />
		<edge from-layer="3922" from-port="2" to-layer="3925" to-port="0" />
		<edge from-layer="3923" from-port="0" to-layer="3924" to-port="0" />
		<edge from-layer="3924" from-port="1" to-layer="3925" to-port="1" />
		<edge from-layer="3925" from-port="2" to-layer="3926" to-port="1" />
		<edge from-layer="3926" from-port="2" to-layer="3928" to-port="0" />
		<edge from-layer="3927" from-port="0" to-layer="3928" to-port="1" />
		<edge from-layer="3928" from-port="2" to-layer="3929" to-port="1" />
		<edge from-layer="3929" from-port="2" to-layer="3931" to-port="0" />
		<edge from-layer="3930" from-port="0" to-layer="3931" to-port="1" />
		<edge from-layer="3931" from-port="2" to-layer="3934" to-port="0" />
		<edge from-layer="3932" from-port="0" to-layer="3933" to-port="0" />
		<edge from-layer="3933" from-port="1" to-layer="3934" to-port="1" />
		<edge from-layer="3934" from-port="2" to-layer="3936" to-port="0" />
		<edge from-layer="3935" from-port="0" to-layer="3936" to-port="1" />
		<edge from-layer="3936" from-port="2" to-layer="3938" to-port="0" />
		<edge from-layer="3937" from-port="0" to-layer="3938" to-port="1" />
		<edge from-layer="3938" from-port="2" to-layer="3939" to-port="0" />
		<edge from-layer="3939" from-port="2" to-layer="3942" to-port="0" />
		<edge from-layer="3940" from-port="0" to-layer="3941" to-port="0" />
		<edge from-layer="3941" from-port="1" to-layer="3942" to-port="1" />
		<edge from-layer="3942" from-port="2" to-layer="3943" to-port="0" />
		<edge from-layer="3943" from-port="1" to-layer="3944" to-port="0" />
		<edge from-layer="3944" from-port="2" to-layer="3947" to-port="0" />
		<edge from-layer="3945" from-port="0" to-layer="3946" to-port="0" />
		<edge from-layer="3946" from-port="1" to-layer="3947" to-port="1" />
		<edge from-layer="3947" from-port="2" to-layer="3948" to-port="0" />
		<edge from-layer="3948" from-port="1" to-layer="3959" to-port="0" />
		<edge from-layer="3949" from-port="2" to-layer="3952" to-port="0" />
		<edge from-layer="3950" from-port="0" to-layer="3951" to-port="0" />
		<edge from-layer="3951" from-port="1" to-layer="3952" to-port="1" />
		<edge from-layer="3952" from-port="2" to-layer="3953" to-port="0" />
		<edge from-layer="3953" from-port="1" to-layer="3954" to-port="0" />
		<edge from-layer="3954" from-port="2" to-layer="3957" to-port="0" />
		<edge from-layer="3955" from-port="0" to-layer="3956" to-port="0" />
		<edge from-layer="3956" from-port="1" to-layer="3957" to-port="1" />
		<edge from-layer="3957" from-port="2" to-layer="3958" to-port="0" />
		<edge from-layer="3958" from-port="1" to-layer="3959" to-port="1" />
		<edge from-layer="3959" from-port="2" to-layer="3960" to-port="0" />
		<edge from-layer="3960" from-port="2" to-layer="3963" to-port="0" />
		<edge from-layer="3961" from-port="0" to-layer="3962" to-port="0" />
		<edge from-layer="3962" from-port="1" to-layer="3963" to-port="1" />
		<edge from-layer="3963" from-port="2" to-layer="3964" to-port="0" />
		<edge from-layer="3964" from-port="1" to-layer="3965" to-port="1" />
		<edge from-layer="3965" from-port="3" to-layer="3988" to-port="1" />
		<edge from-layer="3965" from-port="3" to-layer="4002" to-port="1" />
		<edge from-layer="3965" from-port="3" to-layer="3980" to-port="1" />
		<edge from-layer="3965" from-port="3" to-layer="3966" to-port="1" />
		<edge from-layer="3966" from-port="2" to-layer="3974" to-port="0" />
		<edge from-layer="3966" from-port="2" to-layer="3967" to-port="0" />
		<edge from-layer="3967" from-port="2" to-layer="3970" to-port="0" />
		<edge from-layer="3968" from-port="0" to-layer="3969" to-port="0" />
		<edge from-layer="3969" from-port="1" to-layer="3970" to-port="1" />
		<edge from-layer="3970" from-port="2" to-layer="3971" to-port="0" />
		<edge from-layer="3971" from-port="1" to-layer="3972" to-port="1" />
		<edge from-layer="3971" from-port="1" to-layer="3986" to-port="0" />
		<edge from-layer="3972" from-port="2" to-layer="3973" to-port="0" />
		<edge from-layer="3973" from-port="2" to-layer="3987" to-port="0" />
		<edge from-layer="3974" from-port="2" to-layer="3977" to-port="0" />
		<edge from-layer="3975" from-port="0" to-layer="3976" to-port="0" />
		<edge from-layer="3976" from-port="1" to-layer="3977" to-port="1" />
		<edge from-layer="3977" from-port="2" to-layer="3978" to-port="0" />
		<edge from-layer="3978" from-port="1" to-layer="3979" to-port="0" />
		<edge from-layer="3979" from-port="2" to-layer="3980" to-port="0" />
		<edge from-layer="3980" from-port="2" to-layer="3981" to-port="0" />
		<edge from-layer="3981" from-port="2" to-layer="3984" to-port="0" />
		<edge from-layer="3982" from-port="0" to-layer="3983" to-port="0" />
		<edge from-layer="3983" from-port="1" to-layer="3984" to-port="1" />
		<edge from-layer="3984" from-port="2" to-layer="3985" to-port="0" />
		<edge from-layer="3985" from-port="1" to-layer="3986" to-port="1" />
		<edge from-layer="3986" from-port="2" to-layer="3987" to-port="1" />
		<edge from-layer="3987" from-port="2" to-layer="3995" to-port="1" />
		<edge from-layer="3987" from-port="2" to-layer="4001" to-port="1" />
		<edge from-layer="3987" from-port="2" to-layer="3988" to-port="0" />
		<edge from-layer="3988" from-port="2" to-layer="3996" to-port="0" />
		<edge from-layer="3988" from-port="2" to-layer="3989" to-port="0" />
		<edge from-layer="3989" from-port="2" to-layer="3992" to-port="0" />
		<edge from-layer="3990" from-port="0" to-layer="3991" to-port="0" />
		<edge from-layer="3991" from-port="1" to-layer="3992" to-port="1" />
		<edge from-layer="3992" from-port="2" to-layer="3993" to-port="0" />
		<edge from-layer="3993" from-port="1" to-layer="3994" to-port="1" />
		<edge from-layer="3993" from-port="1" to-layer="4008" to-port="0" />
		<edge from-layer="3994" from-port="2" to-layer="3995" to-port="0" />
		<edge from-layer="3995" from-port="2" to-layer="4009" to-port="0" />
		<edge from-layer="3996" from-port="2" to-layer="3999" to-port="0" />
		<edge from-layer="3997" from-port="0" to-layer="3998" to-port="0" />
		<edge from-layer="3998" from-port="1" to-layer="3999" to-port="1" />
		<edge from-layer="3999" from-port="2" to-layer="4000" to-port="0" />
		<edge from-layer="4000" from-port="1" to-layer="4001" to-port="0" />
		<edge from-layer="4001" from-port="2" to-layer="4002" to-port="0" />
		<edge from-layer="4002" from-port="2" to-layer="4003" to-port="0" />
		<edge from-layer="4003" from-port="2" to-layer="4006" to-port="0" />
		<edge from-layer="4004" from-port="0" to-layer="4005" to-port="0" />
		<edge from-layer="4005" from-port="1" to-layer="4006" to-port="1" />
		<edge from-layer="4006" from-port="2" to-layer="4007" to-port="0" />
		<edge from-layer="4007" from-port="1" to-layer="4008" to-port="1" />
		<edge from-layer="4008" from-port="2" to-layer="4009" to-port="1" />
		<edge from-layer="4009" from-port="2" to-layer="4026" to-port="0" />
		<edge from-layer="4009" from-port="2" to-layer="4012" to-port="0" />
		<edge from-layer="4010" from-port="0" to-layer="4011" to-port="0" />
		<edge from-layer="4011" from-port="1" to-layer="4012" to-port="1" />
		<edge from-layer="4012" from-port="2" to-layer="4015" to-port="0" />
		<edge from-layer="4013" from-port="0" to-layer="4014" to-port="0" />
		<edge from-layer="4014" from-port="1" to-layer="4015" to-port="1" />
		<edge from-layer="4015" from-port="2" to-layer="4016" to-port="0" />
		<edge from-layer="4016" from-port="1" to-layer="4019" to-port="0" />
		<edge from-layer="4017" from-port="0" to-layer="4018" to-port="0" />
		<edge from-layer="4018" from-port="1" to-layer="4019" to-port="1" />
		<edge from-layer="4019" from-port="2" to-layer="4022" to-port="0" />
		<edge from-layer="4020" from-port="0" to-layer="4021" to-port="0" />
		<edge from-layer="4021" from-port="1" to-layer="4022" to-port="1" />
		<edge from-layer="4022" from-port="2" to-layer="4024" to-port="0" />
		<edge from-layer="4023" from-port="0" to-layer="4024" to-port="1" />
		<edge from-layer="4024" from-port="2" to-layer="4025" to-port="0" />
		<edge from-layer="4025" from-port="1" to-layer="4073" to-port="0" />
		<edge from-layer="4026" from-port="2" to-layer="4029" to-port="0" />
		<edge from-layer="4027" from-port="0" to-layer="4028" to-port="0" />
		<edge from-layer="4028" from-port="1" to-layer="4029" to-port="1" />
		<edge from-layer="4029" from-port="2" to-layer="4030" to-port="0" />
		<edge from-layer="4030" from-port="1" to-layer="4031" to-port="0" />
		<edge from-layer="4031" from-port="2" to-layer="4034" to-port="0" />
		<edge from-layer="4032" from-port="0" to-layer="4033" to-port="0" />
		<edge from-layer="4033" from-port="1" to-layer="4034" to-port="1" />
		<edge from-layer="4034" from-port="2" to-layer="4035" to-port="1" />
		<edge from-layer="4035" from-port="2" to-layer="4038" to-port="0" />
		<edge from-layer="4036" from-port="0" to-layer="4037" to-port="0" />
		<edge from-layer="4037" from-port="1" to-layer="4038" to-port="1" />
		<edge from-layer="4038" from-port="2" to-layer="4043" to-port="0" />
		<edge from-layer="4038" from-port="2" to-layer="4045" to-port="0" />
		<edge from-layer="4039" from-port="0" to-layer="4043" to-port="1" />
		<edge from-layer="4040" from-port="0" to-layer="4043" to-port="2" />
		<edge from-layer="4041" from-port="0" to-layer="4042" to-port="0" />
		<edge from-layer="4042" from-port="1" to-layer="4043" to-port="3" />
		<edge from-layer="4043" from-port="4" to-layer="4056" to-port="0" />
		<edge from-layer="4044" from-port="0" to-layer="4050" to-port="0" />
		<edge from-layer="4045" from-port="1" to-layer="4048" to-port="0" />
		<edge from-layer="4045" from-port="1" to-layer="4060" to-port="0" />
		<edge from-layer="4046" from-port="0" to-layer="4048" to-port="1" />
		<edge from-layer="4047" from-port="0" to-layer="4048" to-port="2" />
		<edge from-layer="4048" from-port="3" to-layer="4050" to-port="1" />
		<edge from-layer="4049" from-port="0" to-layer="4050" to-port="2" />
		<edge from-layer="4050" from-port="3" to-layer="4052" to-port="0" />
		<edge from-layer="4051" from-port="0" to-layer="4052" to-port="1" />
		<edge from-layer="4052" from-port="2" to-layer="4054" to-port="0" />
		<edge from-layer="4053" from-port="0" to-layer="4054" to-port="1" />
		<edge from-layer="4054" from-port="2" to-layer="4056" to-port="1" />
		<edge from-layer="4055" from-port="0" to-layer="4056" to-port="2" />
		<edge from-layer="4056" from-port="3" to-layer="4068" to-port="0" />
		<edge from-layer="4057" from-port="0" to-layer="4062" to-port="0" />
		<edge from-layer="4058" from-port="0" to-layer="4060" to-port="1" />
		<edge from-layer="4059" from-port="0" to-layer="4060" to-port="2" />
		<edge from-layer="4060" from-port="3" to-layer="4062" to-port="1" />
		<edge from-layer="4061" from-port="0" to-layer="4062" to-port="2" />
		<edge from-layer="4062" from-port="3" to-layer="4064" to-port="0" />
		<edge from-layer="4063" from-port="0" to-layer="4064" to-port="1" />
		<edge from-layer="4064" from-port="2" to-layer="4066" to-port="0" />
		<edge from-layer="4065" from-port="0" to-layer="4066" to-port="1" />
		<edge from-layer="4066" from-port="2" to-layer="4068" to-port="1" />
		<edge from-layer="4067" from-port="0" to-layer="4068" to-port="2" />
		<edge from-layer="4068" from-port="3" to-layer="4070" to-port="0" />
		<edge from-layer="4069" from-port="0" to-layer="4070" to-port="1" />
		<edge from-layer="4070" from-port="2" to-layer="4072" to-port="0" />
		<edge from-layer="4071" from-port="0" to-layer="4072" to-port="1" />
		<edge from-layer="4072" from-port="2" to-layer="4073" to-port="1" />
		<edge from-layer="4073" from-port="2" to-layer="4075" to-port="0" />
		<edge from-layer="4074" from-port="0" to-layer="4075" to-port="1" />
		<edge from-layer="4075" from-port="2" to-layer="4077" to-port="0" />
		<edge from-layer="4076" from-port="0" to-layer="4077" to-port="1" />
		<edge from-layer="4077" from-port="2" to-layer="4079" to-port="0" />
		<edge from-layer="4078" from-port="0" to-layer="4079" to-port="1" />
		<edge from-layer="4079" from-port="2" to-layer="4080" to-port="0" />
	</edges>
	<rt_info>
		<Runtime_version value="2024.2.0-15519-5c0f38f83f6-releases/2024/2" />
		<conversion_parameters>
			<is_python_object value="False" />
			<output_model value="test_ovc" />
		</conversion_parameters>
	</rt_info>
</net>
